trained_net_50epoch.pth (torch, 368624 bytes, 10 tensors)

conv1.weight f4 [12, 3, 5, 5]
00000000: b776 62bd 5b57 6dbb 1263 293e 48b9 813e
00000010: f660 663e 7de9 5fbd c3a3 8a3e 1a6c bd3d
00000020: 572d 74be 231c 933d c390 9a3e 71b8 813e
00000030: 0a1d 8bbe b648 a8be 5d65 9d3d dfab 463d
00000040: 6da3 32be ce8a 8dbe ee2f e5bc 27b3 853d
00000050: 66c9 4fbe 86cd ddbe e759 9dbd db77 6e3d
00000060: bc5c 6bbc 29a9 1abe da96 4bbe b712 59be
00000070: c9e6 90be 7d2d 6abe 94b9 be3d 3f90 043e
00000080: 56e5 25be 0522 0cbf 262a bfbd 3e8e cb3e
00000090: ff7b 223e 5096 02bf 5c2b e2be 44ba 823d
000000a0: 6b0f 833e 8c84 bbbd 63ef ccbe ed94 7dbc
000000b0: 3acc 423d 5508 3b3e 53f4 3fbe c025 a5bd
000000c0: 75c8 673e 5439 903d d402 283d e724 923c
000000d0: 2a6a 123e 81bf 16bc c1ff 0cbe 44a7 e63d
000000e0: 3b62 193e 99d8 d73c 2070 34be 5ca8 35be
000000f0: 3ef7 9b3e 5f34 853e 5287 b2be f6f9 c4be
00000100: 469c 00bc ef28 ad3e 3de5 cbbd be93 8bbe
00000110: d08c fabd f2bc b23d d074 2b3e 9d83 41be
00000120: bf15 183e 35f0 7a3d 1c5b 973d b0ea 2b3c
00000130: 693e 153d 221e e03c efc4 8bbe 21ca 083e
00000140: a762 cabd 42a7 483d 9e2b f23e 8051 18bf
00000150: 5bff d03c 6676 02be 1b88 39be 970b 9e3e
00000160: e9e6 e93e 9941 18bf 1cee 733e 145f 593e
00000170: 9546 93bf 6f30 293f 368e ae3d 56b7 6ebd
00000180: 29e2 4b3f 46df 93bf 65f0 a0be 41ba 053f
00000190: 548d cbbd 3493 393e 545c 6b3e 29d4 d5bd
000001a0: 20a5 553e 519f fdbd e5f6 033e 0139 e43e
000001b0: 57bf d9be 70c9 893e 0e58 65be b036 67bd
000001c0: 3f79 b73e 712a c13e f24b d9be 0719 a53e
000001d0: 68d0 293e 3e92 90bf a6fe 3c3f e6a0 553e
000001e0: f542 38be b2a9 4f3f 037b 7bbf ffdd 8cbe
000001f0: cdef 153f 4d46 3abe 4ec8 d5bd 9b84 8ebc
00000200: ae63 94be 46a1 003d a2d9 acbd 2f0e 8abc
00000210: 7975 a63e a225 c1be 526d 943d 47c9 1cbe
00000220: dfa6 5ebe e2cf 913e 5ffb b03e a730 01bf
00000230: d750 713e 34ed 9b3e 6445 94bf 4fa6 2f3f
00000240: c58e 483d 2e03 27be d841 453f c290 69bf
00000250: 632b adbd 23d8 d13e aa36 0e3f 665c f8bc
00000260: 4e16 4e3f 8380 483e d254 613e f6a4 333e
00000270: c0b7 06bf 7ad8 013f e63b b1be b7ac 5dbe
00000280: ad8d 203e 2916 58bf c5d2 0c3f 11f7 c6be
00000290: 3c3b 37be f560 8a3e c20a 18bf 9d1c 353f
000002a0: aa1d e8bd e6da a9bd 5258 603b 8c19 29bf
000002b0: 0380 ae3e db5d a0be 83c9 b1bd ad35 a03d
000002c0: 7269 62bf df3e c43e 70d2 3e3d 063c f8bd
000002d0: 50c2 963d 8f51 82bf 02d3 273e c3f9 afbe
000002e0: 06fd 87be fb7e 913e 8b97 65bf 1e0b ee3e
000002f0: ad7f 28be 0ca8 e3bc a090 093f 9309 07bf
00000300: 6dec 613f 5a3a 173e 39c4 723e fd67 ae3d
00000310: 7534 dfbe df42 0b3f dadf b33d 7464 af3c
00000320: d8dd 9c3e 9b77 e8be 7801 ff3e 0d60 d5bd
00000330: 4e4b 003e f35a 393e 302c 04bf 2e85 ab3e
00000340: f040 b4be 5882 1cbe c40a b53e 8bbb 1abf
00000350: 71fc 2b3f 84b0 ebbd d563 123e 08d1 fe3e
00000360: 13c8 cfbe f197 2b3f c0f2 23be aa56 5c3e
00000370: 5198 4a3d 8091 02bf 7454 893e 9eac 92be
00000380: 5e6b 24bd 9804 853e 842f 92bc c1b3 4abe
00000390: 493c 88be 45e9 9cbc 8354 a13b 128d 003f
000003a0: 7f61 e13e 1749 4c3e 7e06 e5bc a5d9 03be
000003b0: 4b5e 8e3e 382a 1d3f e339 573f a3e8 8e3e
000003c0: 42d8 c5be c332 24bf 41e2 00bf e456 aebe
000003d0: 577d 013c ddfa 9c3c 3388 90bc 99da 49be
000003e0: aed2 66be 44c5 14be 4363 e43d e4d0 58be
000003f0: d7d5 e4be f110 babe 0a3f 76bd deb0 47bd
-0.055288997 -0.0036215398 0.16541699 0.2533667 0.22497925 -0.05466603 0.27078065 0.09249134
-0.23845421 0.07183101 0.3018857 0.2533603 -0.27170593 -0.32867974 0.07685349 0.048503753
-0.17445154 -0.27644962 -0.027976956 0.06528311 -0.20291671 -0.43320864 -0.07683163 0.05821977
-0.014365371 -0.15103592 -0.19881764 -0.21198545 -0.28301075 -0.22868915 0.0931274 0.1294565
-0.16200766 -0.5473941 -0.09334211 0.3975696 0.15867613 -0.5101061 -0.44173706 0.063831836
0.255977 -0.09156141 -0.40026388 -0.015477401 0.047558047 0.18264897 -0.18745546 -0.08063841
0.22635062 0.070421845 0.041018322 0.017839862 0.14298311 -0.0092009315 -0.13769437 0.11262372
0.14978878 0.026348399 -0.17620897 -0.17740005 0.30462068 0.26016518 -0.34868866 -0.38471955
-0.0078497585 0.33820292 -0.09955833 -0.27261156 -0.12233889 0.08727445 0.16743779 -0.18897863
0.14852045 0.061264236 0.073904246 0.010492966 0.036436472 0.027358118 -0.27298686 0.13358356
-0.09882098 0.048987634 0.47298902 -0.5949936 0.025512388 -0.12740478 -0.18118326 0.30868217
0.45683983 -0.59475094 0.238213 0.21227676 -1.1505915 0.6608953 0.08523218 -0.05828031
0.7964197 -1.1552513 -0.31433406 0.52237326 -0.099390656 0.1812256 0.22984439 -0.10440857
0.20863771 -0.12383903 0.12887152 0.4457474 -0.42528793 0.26911497 -0.22396871 -0.05644864
0.3583469 0.37727693 -0.42440754 0.32245657 0.16583407 -1.129463 0.7382606 0.20862159
-0.17994292 0.8111831 -0.98234576 -0.2751312 0.5856903 -0.1819088 -0.10438596 -0.017397216
-0.289823 0.031403802 -0.08439948 -0.016852466 0.325115 -0.37724024 0.07247414 -0.15311156
-0.21743344 0.28478914 0.3456678 -0.5046486 0.23565994 0.3045441 -1.1583676 0.6861314
0.04896428 -0.16309807 0.77053595 -0.9123651 -0.08455541 0.40985212 0.5555216 -0.030317497
0.80502784 0.19580273 0.22005013 0.17543396 -0.5262413 0.5072094 -0.3461601 -0.21647917
0.15679045 -0.84408814 0.5500911 -0.38860372 -0.1789369 0.27027097 -0.59391415 0.70746785
-0.11333783 -0.08293705 0.003423233 -0.66054606 0.3408204 -0.31321606 -0.086810134 0.07822738
-0.88442147 0.38329217 0.046587408 -0.121208236 0.07361281 -1.018114 0.16389087 -0.3437024
-0.2656023 0.2841719 -0.8968436 0.46492857 -0.16454954 -0.027790092 0.53736305 -0.52748984
0.8825138 0.14768353 0.23707666 0.08515928 -0.4359471 0.5439891 0.08782931 0.021410204
0.30638003 -0.45403752 0.49805808 -0.10418711 0.12528726 0.181011 -0.51629925 0.33500046
-0.35205793 -0.15284097 0.35359776 -0.6044242 0.6718207 -0.11508277 0.14295895 0.49768853
-0.40582332 0.6702872 -0.1601057 0.21517435 0.049461666 -0.51003265 0.26822245 -0.2864732
-0.040141456 0.25980067 -0.017844923 -0.19795133 -0.26608494 -0.0191542 0.0049234047 0.50215256
0.44019696 0.19949757 -0.027957197 -0.12875994 0.27806315 0.61392546 0.84072703 0.27911863
-0.38641554 -0.64139956 -0.50345236 -0.34050667 0.0079034185 0.01916259 -0.01764307 -0.19712295
-0.22541305 -0.14528376 0.11151745 -0.21173435 -0.44694397 -0.3634105 -0.060118712 -0.048752658

conv1.bias f4 [12]
00000000: 5fd1 9abe de17 dc3d 4629 38be 6c91 abbe
00000010: d466 2d3e cab5 66be 40a7 c33e da84 d1be
00000020: baf3 333f 72fd 3abe 2893 04be 32f8 44be
-0.30237862 0.1074674 -0.17984495 -0.33509386 0.16933757 -0.22530285 0.3821354 -0.4092167
0.7029377 -0.18260744 -0.1294676 -0.19235304

conv2.weight f4 [24, 12, 5, 5]
00000000: ca9e 6ebc 700f a13e dc86 00bd d44f e03d
00000010: 45e4 d2bd 75b6 0a3e 1530 013d ce79 0abe
00000020: 1316 293e 9719 1dbe 3b7f 753e 5d3e 94be
00000030: 2299 d93d 58af 7c3d c03b 56be de6e 4f3e
00000040: 61ae 27bc 2f84 103e e475 4b3d 6927 dcbd
00000050: 2fa4 75be 4f9f 1a3d 5ab4 de3d 59cc 3dbd
00000060: 66d8 10be 8a60 773d 30b7 8a3e 0c68 a0ba
00000070: 3bd0 39bc 2352 0e3c ce55 493e 6858 10bd
00000080: 5011 20bd 429f e43d 0978 87bd 9d6b 8c3d
00000090: 2236 cdbd 84d4 423e bea9 283e c141 e2bd
000000a0: 042b 5f3d 0b7c b53b d92e c73d 6423 34bd
000000b0: 246a 093d 6d47 e2bc e4e3 4cbe 058e bcbd
000000c0: 7758 2ebe 9cf3 84be 437e 873d 1225 f1bb
000000d0: d10d 663e 215a 2f3d 5c1c 463d fab5 003d
000000e0: 337d 123e 7125 163d 22bf b83d d97c 8fbd
000000f0: bbf8 1a3e 68cc c93d 3cd8 aa3b 56b4 4d3d
00000100: a1cd 8b3d 3e48 103e 4a26 b03c aab5 d93d
00000110: ee14 173e 8f0b 313d 098a ebbd 5ae6 ff3c
00000120: 4894 f43c 4de1 343c e393 3f3d 7558 f439
00000130: 7c2e a6bd 77da 3abd 3b98 423d 3845 ec3d
00000140: 652e 50bd 4515 25be 8f81 8cbd ddd4 823d
00000150: 27ce 23bd 7b57 bebd 80fb 91bd 6351 eebc
00000160: a736 fabd f9e5 f33d 1e8d a13b 36bd 983d
00000170: a0c3 88bd fb8f 0dbe 41e7 e03c a2f4 103e
00000180: 486a 89bc 7ce8 ce3d 68c7 2abd f57a 3ebc
00000190: 7006 073e d54e 903d 9120 823c d261 233e
000001a0: 7e0b 76bd 9e89 f03d 6098 e6bd 7816 173e
000001b0: 5407 fabc b21a 75bd fd6a 2fbe d732 b7bd
000001c0: 3232 9f3d 4386 c53d 44c8 a93c af95 39be
000001d0: 32d0 35bd 5611 893c 6632 c03d 5913 983d
000001e0: 97a7 62bd 3c8c 293e 7bb5 b33d 9c66 d8bd
000001f0: 1982 c3bc f3ef b5bd ff46 6fbe eee8 54bc
00000200: 8f73 1abe c887 c1bc 58d4 a2be efe8 163e
00000210: 6952 1dbd 29f0 20be f171 2d3e 93e1 71be
00000220: 4d4d 233e 2068 a1bd 2f68 48bd 13d7 b83d
00000230: 5ac6 ac3d 454e 2d3d 9045 ddbd 1976 10be
00000240: 42bd dabd b859 ae3d 45e6 adbc aa0f 9bbb
00000250: 02eb 35bc 5dd1 cc3d 9f4f ddbd 0131 95bd
00000260: 4e09 7dbd bde6 8cbd 6f8e 4b3c 85c1 19be
00000270: 8a77 d1bd e89c 953b 714c ce3d b0e1 53bc
00000280: 5a6f 35be a891 45be ee3e ac3d 6863 68bd
00000290: 37db 933d 4f68 a6bd e848 5abd 706f 89bd
000002a0: 2e5d 95bd 92a6 013e d025 773d 80ea 463e
000002b0: eb7a 4c3e 6f71 883d 4e5a c5bb 889a debd
000002c0: b438 15bd 20d7 4dbe fdc1 86bc de3f ba3c
000002d0: 9bc3 c83c 272f d5bd ff8d 01be 9d06 043e
000002e0: 24f2 fabd 18de 0d3e bc4a f3bc 1b91 1b3d
000002f0: adf8 8cbd 7d6d 96bc bc28 303c d603 a23c
00000300: ed74 b83d 8d48 37be 8cce a33c ed6b f0bd
00000310: c453 c13d a16f 453d e023 b0bd f00f 8c3c
00000320: 331c 01bc 2b8e 18bd 849c d13d df78 6c3d
00000330: dd5e 2cbd 7712 94bc db29 edbd 1db0 593d
00000340: dde7 8e3d a868 e5bc 4638 d63d 076a 943c
00000350: 58ee 2dbc 76d4 9a3c c620 dcbd 8079 873b
00000360: 7ee6 c8bc 3e8d 2a3d 2434 603d 6d43 d2bd
00000370: 3cdf f43c 26a7 f73a dd07 923d 089c df3d
00000380: 1b3f f9bd 7863 803e a885 c13c 7605 b23e
00000390: 2f7b 4fbe c687 c0bc 0210 ee3d 2647 603e
000003a0: 32e3 ff3c 0969 2a3c ff38 003e 9e78 2abe
000003b0: 8f99 073e 6e4a 85be b0b4 26be 434f 7d3d
000003c0: a540 f53d 1ec7 173e 8a8e 75be 154b ab3d
000003d0: e425 cb3d 3c13 c3bd 8129 6dbe 1a39 3b3d
000003e0: 0f5d 423e 7e01 d03d cc02 763d 6ad6 00be
000003f0: 72fc 923d c747 da3d e63e 57bb 58c9 8ebd
-0.014564225 0.3145709 -0.031378612 0.10952726 -0.10297445 0.13546164 0.031539995 -0.13523027
0.16512327 -0.15341793 0.23974316 -0.2895383 0.10624911 0.06169066 -0.2092123 0.20257136
-0.010234446 0.14112924 0.049672976 -0.107497044 -0.23988412 0.037749585 0.10874243 -0.04633746
-0.1414505 0.0603948 0.27092886 -0.001223804 -0.01134115 0.008686575 0.19661638 -0.03524056
-0.03907901 0.111631885 -0.06614692 0.06856463 -0.10020091 0.19026381 0.16471002 -0.11047698
0.054484382 0.0055384687 0.09725732 -0.043979064 0.03354849 -0.02762195 -0.20008808 -0.092067756
-0.17025934 -0.2596711 0.066158794 -0.0073591555 0.22466208 0.042810563 0.04836689 0.031423546
0.14305572 0.0366568 0.09020831 -0.07006235 0.15133946 0.098534405 0.0052137654 0.05022081
0.0682633 0.14090058 0.021502633 0.10630353 0.14754078 0.043223914 -0.115009375 0.03123777
0.029855862 0.011040044 0.046771895 0.00046605212 -0.08114335 -0.0456185 0.04750846 0.1153664
-0.050825495 -0.16121395 -0.06860649 0.06388257 -0.039991524 -0.09294029 -0.07128048 -0.029091543
-0.12217455 0.11909098 0.0049301526 0.07457964 -0.066779375 -0.13824455 0.02745402 0.1415582
-0.016774312 0.101029366 -0.041694075 -0.011625995 0.1318605 0.07046286 0.01588467 0.15955284
-0.060069554 0.117449984 -0.11259532 0.14754665 -0.030521072 -0.05983991 -0.17130657 -0.08945244
0.07773246 0.09644749 0.020725377 -0.18123506 -0.044388004 0.0167319 0.09384613 0.07425565
-0.055335607 0.16557401 0.08774849 -0.10566446 -0.023865746 -0.08883657 -0.23366927 -0.012994988
-0.15083145 -0.023624316 -0.3180263 0.14737295 -0.03840867 -0.15716614 0.16937996 -0.23621206
0.15947457 -0.078811884 -0.048927482 0.09025397 0.0843627 0.04231097 -0.108042836 -0.1410755
-0.10680629 0.08513206 -0.021227965 -0.004732092 -0.0111033935 0.100008704 -0.10806202 -0.072847374
-0.06177645 -0.06879947 0.0124240955 -0.15015228 -0.102278784 0.004565824 0.10073174 -0.012932226
-0.17718259 -0.19293845 0.084104404 -0.056735426 0.07219546 -0.08125364 -0.053292185 -0.06710708
-0.07293163 0.12661198 0.060338795 0.19425392 0.19968764 0.06662261 -0.006022728 -0.10869318
-0.03643103 -0.20101595 -0.016449923 0.022735532 0.024507334 -0.10409384 -0.12651823 0.12893148
-0.12253216 0.13854253 -0.029698722 0.03798018 -0.06883369 -0.018362755 0.010751899 0.01977722
0.09006677 -0.1789877 0.01999595 -0.11739335 0.09439805 0.04820216 -0.086005926 0.017097443
-0.007880258 -0.037244957 0.10234931 0.05773246 -0.042082656 -0.018075211 -0.11580249 0.05314647
0.06977818 -0.028004006 0.10459952 0.018116964 -0.010615908 0.018900137 -0.107484385 0.004134357
-0.02452397 0.041638605 0.054737225 -0.10266767 0.029891603 0.0018894419 0.07130406 0.109184325
-0.121702395 0.2507589 0.023623303 0.3476979 -0.20261835 -0.023502242 0.11624147 0.21902141
0.031236265 0.010401019 0.12521742 -0.16647574 0.13242172 -0.26033348 -0.16279864 0.061843168
0.119752206 0.14822051 -0.23980156 0.0836393 0.099193364 -0.09525153 -0.23160364 0.045708753
0.18980812 0.101565346 0.06006126 -0.12581792 0.07177056 0.10658222 -0.0032843887 -0.06971997

conv2.bias f4 [24]
00000000: c693 e6be 1409 b13e 05ab e5bd 3bfc 4c3e
00000010: 874a 1f3e d74c a13e 0b4b 99bc 34c3 f7be
00000020: d4a8 063e 6a4c 7dbe b4e4 333e 1b50 9b3e
00000030: 1b33 f9bc 5815 b4bc 9346 d2be b627 b0be
00000040: acc2 c1bd c51e 953f fc56 83be 46f3 033e
00000050: 1f63 79be 1103 30bf db07 63be af36 603f
-0.45034617 0.3457724 -0.1121426 0.20018093 0.15555774 0.31503937 -0.018712541 -0.48391116
0.1315034 -0.24736181 0.17567712 0.30334553 -0.030419877 -0.021982834 -0.4106947 -0.34405297
-0.09460959 1.1650015 -0.256523 0.1288577 -0.24354218 -0.6875468 -0.22170965 0.8758344

fc1.weight f4 [120, 600]
00000000: 4b9a 903d adaa b4bd 8e60 c9bd 05c0 05be
00000010: 23f3 afbc e6cb 083d c287 87bd 0604 503d
00000020: 0a34 98bd 3dce 4c3d 13a9 0a3c ec58 cfbc
00000030: 1ef5 42bc 4caa d43d b09b c83c 31a5 2e3d
00000040: 62d2 d83d 367a e8bc 3798 c33c a1d9 b3bc
00000050: 1c63 0abd 1d33 e6bb 7053 0a3d b699 1a3d
00000060: 1cf8 033e 6ec7 0dbc 639e ec3b e149 ddbd
00000070: 28e8 2bbd 67bb 18bd 7a55 0abd 1572 fe3c
00000080: 1eb4 a1bb 0cea 38bd 84bf e93d ff90 c93c
00000090: b6cf 593c e681 b4bd 47ce 9ebd 3bef 0abd
000000a0: 5504 613d b8d3 823d ab79 5dbd 31e9 c23d
000000b0: e6a7 95bd 9d2d ccbd ec6a 5c3d 7546 6d3e
000000c0: f6d2 003d 1d96 aebd b740 293c 5a00 a33d
000000d0: 81f0 263e b727 d93d 298d 6cbc 3ee1 103d
000000e0: 1ae9 be3d 5e5d e3bc 0a1c 27bd a6f1 0abe
000000f0: cc02 50bd b8fd 98bd a984 b33c c568 783c
00000100: 465b aabd e291 afbd a7fc 54bd 98fc 803d
00000110: f387 6dbd ad14 82bd a7d3 183d 90b1 453d
00000120: 38fd 9bbd 62c7 b3bd 7c5e a73d d067 8cbc
00000130: eb62 adbd 3f14 00bd 9c30 cdbc de75 f0bc
00000140: f21e cfbc 6894 a33c a81a febd 51da 06be
00000150: d717 323b 06a7 b43d 7bd7 373e 3ada e6bd
00000160: b373 c8bd 2744 14bc 342e 0f3c ac50 e9bd
00000170: 490e a6bd aa59 9abd df57 9b3c d85a a83c
00000180: deea 01bc 45f9 19bd de81 86bc d7a5 5e3d
00000190: b3f3 d83d 3eee ab3d 7fc5 8bbc c9ec 33bd
000001a0: 9762 a3bd 9515 c03c f252 22bc 18e8 b73c
000001b0: 0adf acbc ee57 b43d b15a 273c ef62 85bd
000001c0: 4f8f 84bd 3c3c 373c eb33 063c 47a4 5c3d
000001d0: ffd2 9a3c 763a 14bd f4fb e83d a617 77bd
000001e0: 11e4 6e3d 242d 17bc add4 debc a246 5d3d
000001f0: 1e8d b8bc 9f30 bd3c 39ea 5c3c 87ac 063e
00000200: 1db8 363d fc51 c5bc c53d 343d 8544 993d
00000210: 848e 793d bf18 54bc f9fd d3bd f9cd 9d3d
00000220: 43b8 bdbc 0d8d 07bb ff41 2f3d ebf3 9ebd
00000230: fe32 773c 3b2e 9b3d 02c6 61bb 125a e83c
00000240: bbc8 bcbd af3b 50bd f51b dbba e162 b63c
00000250: 030f 1e3e d13a 6b3d a5db 243d 6a90 d8bc
00000260: a797 d33c 8eb7 f13d ab7c 1dbd 1c4c 333b
00000270: 9d54 d93b 0ea4 393d db9d 473d d6d2 ecbd
00000280: 346d 5f3d af53 b33b 2345 6ebd 6920 a9bd
00000290: d1e8 33bd f595 103b 4c2f b73b db41 57bd
000002a0: 7415 70bb 93da 4fbd 2d0b 3dbe b1a9 93bd
000002b0: 0f3d 4cbd 5481 2a3d 5864 e6bc f35e ae3d
000002c0: 1ad2 93bc 9e5f 97bd 2695 bd3c 2b6b 05bd
000002d0: 2a8a c8bc f7ae 303c 7f1b 64bd 1e0d d23c
000002e0: 1f42 c2bd 6d5a 42bd 5157 2e3d 4867 81bd
000002f0: 8813 68bd 275a cfbd 993f a0bc 96e8 19bd
00000300: 2b7a c93b 1632 a5bd 2b82 18bd a66e fb3d
00000310: 3163 e8bc 5e89 063b 3ea2 5b3d 6a8f 963c
00000320: 7bf7 943d ba4b fc3d 4ce6 843c e95b 3a3d
00000330: 9985 fc3d 6484 e93c 3d81 1abc 1e15 febc
00000340: 0cd4 9e3d a173 88bc ee8f 693d d540 5fbd
00000350: dd56 aa3c 7db2 683d 7375 773c 7297 bebc
00000360: 7301 ed3c 7c86 593d 39ec ac3c 191a a73c
00000370: 1786 15bd 087c abbd 657f 2fbe 9e01 c6bd
00000380: 9b8c 84bd 3020 03bd 0932 1ebd b890 bdbc
00000390: 99d2 083d 5d47 6e3b 9d6f 963c 143f 1cbd
000003a0: 3364 3bbd 530f c73c c936 dfbd 6260 bf3d
000003b0: a1fe 653d fbc1 1dbd 9d92 7dbd ff96 09be
000003c0: fcb6 4c3d 564e 5a3c 7d7f 66bd 55c0 60bd
000003d0: ba9e fcbd b0aa e93d 1b25 023e feec 273c
000003e0: d032 293c e311 0b3d ea38 ae3c c965 e63d
000003f0: 58d4 1fbd 6ebb 23bd 50aa 863d ebf5 8abd
0.07060679 -0.08821616 -0.098328695 -0.13061531 -0.021478241 0.033397578 -0.066176906 0.050785087
-0.07431801 0.05000137 0.008463162 -0.025310956 -0.011899261 0.10384044 0.0244883 0.042638008
0.10587002 -0.028378587 0.023876293 -0.02195436 -0.033785924 -0.007025136 0.03377098 0.037744246
0.12887615 -0.008653505 0.0072210296 -0.10805107 -0.04196945 -0.037288096 -0.033772923 0.031060258
-0.0049348017 -0.04514508 0.11413482 0.024605272 0.013294151 -0.08813839 -0.07754188 -0.033919554
0.054935772 0.063880384 -0.05407111 0.09517134 -0.07307415 -0.099696375 0.053812906 0.23171408
0.031451188 -0.085247256 0.010330371 0.079590514 0.16302682 0.10603278 -0.014437952 0.035371058
0.09321804 -0.027754482 -0.040798225 -0.13568744 -0.050783917 -0.07470268 0.021913843 0.015161698
-0.0831819 -0.08572747 -0.05199876 0.062981784 -0.05799098 -0.063516 0.037311222 0.04826504
-0.07616657 -0.08778264 0.08172318 -0.017139345 -0.08466133 -0.03126931 -0.025047593 -0.029353078
-0.02528331 0.019968227 -0.12407428 -0.13169219 0.0027174854 0.0882092 0.17953293 -0.11272092
-0.09787693 -0.009049452 0.008739043 -0.1139234 -0.081081934 -0.07536633 0.018962799 0.02055113
-0.007929532 -0.037591238 -0.016419347 0.054357376 0.10593357 0.083950505 -0.017061947 -0.043926988
-0.07977789 0.023447791 -0.009907471 0.022449538 -0.021102447 0.08805834 0.010214494 -0.06513011
-0.064726464 0.011183795 0.008191089 0.053867605 0.018899439 -0.036188565 0.11376181 -0.060325287
0.05832297 -0.009227071 -0.027201021 0.05402244 -0.022528227 0.023094473 0.013483577 0.13151751
0.044609178 -0.024086945 0.04400422 0.07483772 0.06092693 -0.012945353 -0.10351176 0.07705302
-0.023159152 -0.0020683438 0.04278755 -0.077613674 0.015087841 0.07577177 -0.0034450297 0.028363261
-0.09217974 -0.05083817 -0.0016716706 0.022263946 0.15435414 0.05742914 0.04024853 -0.02643605
0.02582915 0.118025884 -0.03844897 0.0027358597 0.006632401 0.04532247 0.048734527 -0.11563651
0.054547504 0.0054726223 -0.058171403 -0.08258135 -0.043923203 0.0022062038 0.005590355 -0.05255304
-0.003663388 -0.050745558 -0.18461294 -0.072101004 -0.049862918 0.041627243 -0.02812402 0.08514204
-0.01804452 -0.073912844 0.023142409 -0.032572906 -0.024479944 0.010783902 -0.055690285 0.02564102
-0.09485268 -0.047449518 0.04256374 -0.063185275 -0.05665925 -0.10124617 -0.019561576 -0.037575327
0.0061485968 -0.08066194 -0.037233513 0.12276964 -0.02836761 0.0020528655 0.053621523 0.018378932
0.07273766 0.12319131 0.016223095 0.04549781 0.12330169 0.028505512 -0.009430227 -0.031015929
0.077552885 -0.016656699 0.057022028 -0.054505188 0.020793373 0.056810845 0.015103686 -0.023265574
0.028931355 0.05310677 0.021108733 0.020398187 -0.03650483 -0.083732665 -0.17138441 -0.09668277
-0.06472131 -0.03201312 -0.038621936 -0.023140296 0.033403967 0.0036358454 0.018363768 -0.038146093
-0.045749854 0.0242993 -0.10899121 0.093445554 0.056151036 -0.038515072 -0.0619074 -0.13436507
0.049979195 0.013324341 -0.056273926 -0.054870922 -0.12334962 0.11409509 0.12709467 0.010249374
0.010327056 0.033952605 0.021267373 0.11249883 -0.039020866 -0.03997367 0.06575453 -0.067851864

fc1.bias f4 [120]
00000000: 630d f1bb 8f1b e8bd cb36 46bd c9b4 90bc
00000010: 3af8 0c3d cb68 b2bc 1391 01bd a4ee 453d
00000020: 038f fcbc 9413 b3bc 5e54 1b3a 6584 32bd
00000030: e0a6 c5bd d8a1 053d 156a a8bd d9fe 1a3e
00000040: e3fc 42bc 8bab a9bc 433d a93b bd9d d33c
00000050: a8ff 203e e466 4d3d 36df 5ebd b933 cb3d
00000060: 368e 28bd 31e5 8f3d ee9f 3aba f206 03bd
00000070: 665f ff3d a653 d83d 7a97 09be ae3e 3bbe
00000080: 4fcf 393e 717b a2bc c4c5 20bb f07d 813d
00000090: 5bae db3c 2b18 a33d 1c0a d53c de6b 58bd
000000a0: a16d e3bd 4693 713c eed6 b1bd 7295 c43d
000000b0: a346 f2bc 62cc ce3d 1a4b 9a3d 15a5 113e
000000c0: 21c5 a53d 30a5 8e3c 2885 b13c f7e2 953b
000000d0: e71a 313d a85b 413d 50b1 403d 2e5c e5bc
000000e0: 5728 5a3e ec6f 293d b041 87bd b166 ad3d
000000f0: fbc1 ac3d e5c8 b3bc 6186 403d cc7f 243d
00000100: fd40 003d 9758 043c a5da b7bc 841b 603e
00000110: 17db 7a3c 726b 55bd e923 29bc 6ad0 6b3d
00000120: 1998 7fba 7740 51bc 5b41 d4bb 138b 94bc
00000130: 87ab 3ebd 8eaf c33d 28db 1b3d 83a4 49bd
00000140: 6aad fc3d e322 15be d594 163d 1431 23bd
00000150: 7bbd 923d 118f 6fbd 401c d93d 3533 6b3d
00000160: b9ea 923d 9986 d5bd 6eac e13c 9d67 6fbd
00000170: d48b e2bc db79 013e 8ead 083e c6d1 9ebc
00000180: 19cb f83c 08da 8e3e d59e dbbc 5a97 503e
00000190: 759b d03d 5449 bc3d f626 093a f8da 80ba
000001a0: 954a cd3d 5af4 603c bcf8 2cba ed29 2d3d
000001b0: 7faf 21bd 07b1 a93d 96ed 143e fb7c 12be
000001c0: 820e c0bb 73ff da3d a093 a33d a494 0cbd
000001d0: f37f 49bd b8ad f8bc a86c 433a a977 d2bd
-0.007356332 -0.113333814 -0.0483921 -0.01766433 0.034416415 -0.021778485 -0.031632494 0.04832329
-0.030829912 -0.021859922 0.00059253525 -0.043583293 -0.096509695 0.03262505 -0.082233585 0.15136279
-0.011901113 -0.02071168 0.0051647737 0.025832051 0.15722525 0.050146952 -0.05441209 0.09921975
-0.041151248 0.07026137 -0.00071191683 -0.031989045 0.12469368 0.1056283 -0.1343669 -0.18285629
0.18145488 -0.019834252 -0.002453194 0.06322849 0.026816538 0.07963594 0.026005797 -0.052837245
-0.111048944 0.014744585 -0.08683573 0.09598817 -0.029574698 0.10097577 0.07533856 0.1422313
0.0809424 0.017412752 0.02166994 0.0045741755 0.043238547 0.04720655 0.0470441 -0.027998056
0.21304451 0.041366503 -0.06604326 0.084668525 0.08435436 -0.02194638 0.047003154 0.04016094
0.031311978 0.008077762 -0.022443125 0.21885496 0.015311024 -0.05210442 -0.010323503 0.057571806
-0.00097501423 -0.012771717 -0.0064775175 -0.018132722 -0.0465503 0.09554969 0.0380508 -0.049229156
0.123377636 -0.1456409 0.03676303 -0.039841726 0.07165047 -0.058486048 0.106010914 0.05742188
0.07173676 -0.10426063 0.027548041 -0.058448423 -0.027654566 0.1264414 0.13347456 -0.019387137
0.030370282 0.2790072 -0.026809135 0.20370236 0.10185901 0.09193674 0.0005231941 -0.0009830883
0.10023991 0.013730133 -0.00065983436 0.04227631 -0.039474007 0.082857184 0.14543757 -0.14305489
-0.0058611045 0.10693254 0.079871416 -0.034321442 -0.049194288 -0.030356273 0.0007454851 -0.102767296

fc2.weight f4 [84, 120]
00000000: b511 d0b9 c857 37bd 6b8e 83bd 8b5e 24be
00000010: e999 b93d 7af3 f3bd 72b9 5d3d 1d2a 2dbd
00000020: c3a6 47bd 2fc7 a0bc b96b 86bd e058 0d3c
00000030: 254c 12be fb89 43bd da1e 373c 211e 28bd
00000040: 732f fd3d 52ec d53d f853 a93d 0b63 6c3d
00000050: 44a9 05bd ca6b d23d cccd 473d 8bf5 8c3d
00000060: b712 59ba 14c2 06bd ca2a c7bb 222f 52bd
00000070: 4a71 b23d db88 bfbd b3a0 bdbd 9285 62bd
00000080: df56 ef3d 5c23 b93d ec3a 0fbd c85e 1d3d
00000090: 5b92 04bc 1716 b43d 2849 c43d 947f c43c
000000a0: 515c 893b d7ee f6bd 8d44 aebc efe2 0fbd
000000b0: 6653 b73d faba 70bd fa2e c83d b642 553d
000000c0: ca29 10bd a70c e6bd 03d2 a93d 91ca ce3d
000000d0: 8a7f 923c e2b7 dc3b 7455 7d3d 46ac 893c
000000e0: 6814 d03d a332 12bd c6ad 99bd 828f bd3c
000000f0: 77c8 c5bc d729 71bc 00a7 b1bb 614d 44bd
00000100: a8a0 0dbd 31c2 fb3d 36c9 e23c 8ee7 123d
00000110: a8c4 30bb f10e c73d a68b 9d3d 44cd d4bc
00000120: 6787 81bd 670b 713d 8a6a 40bd 5b4c d03c
00000130: d5d4 933d 87a7 803d 0ec4 cbbc db11 eabd
00000140: 8d64 813d f532 b73c 4c2d c2bc 6e66 94bd
00000150: e565 b73d 5d7d 833d 0d0b efbc 3989 1fbd
00000160: f857 973d 9989 a13d 8f68 b53b bf30 1b3c
00000170: c415 adbb ba8f df3c 7170 6cbd 071a 09bc
00000180: 3a52 3fbd 1710 25bd cf55 543c 56b5 06bc
00000190: 9dbd a7bd 7259 b63d d9ee 67bd 36f1 c23d
000001a0: d33a 13bd 2d83 8a3c 3a3b f5bc c2a4 793d
000001b0: 43cc d83d f13b acb8 217d 35bd 1430 17bd
000001c0: 7625 1bbd 03cc 9c3d 88fe c63d 81f8 65bd
000001d0: 0866 d93d 378b 0dbd 00b4 b83c 886b 96bd
000001e0: 4498 27bd 7418 2bbd a13b 883d c134 bc3b
000001f0: ecb8 9fbd 2c3b 8dbd a83f 39bd b0fb e4bd
00000200: 086b ebbb 1bf7 ab3d b178 08bd d2f8 2abd
00000210: 87b3 d9bd b137 cbbd 5000 8fbc 249e 553d
00000220: d8dd b53c 5b10 943d 325a 5cbd 244b 86bd
00000230: 5bb5 31bd 9386 a4bd a529 cb3c 3fc3 9f3d
00000240: 0a37 a6bb cb5e 8e3c f7c7 bfbd a6b1 ccbd
00000250: 94e6 13bd 131d b23d c2cc 053d ca91 803d
00000260: 19f9 91bd 84b3 a53d 23a0 f2bb 3a99 753d
00000270: 427a 64bc b9e4 80bc 816a acbd 450f d4b8
00000280: 5bb7 d7bc 8710 9239 4708 aa3d 3f71 1abd
00000290: c6d7 64bd 3f6d 35bd f696 903d 9622 053d
000002a0: 5e5e 08bd 64a1 a83d 5cc3 8f3d 6f17 563d
000002b0: fb96 663d f8e0 ee3c 171a e73d ad21 473c
000002c0: 2fe8 6d3d 9522 b2bd 25e1 3a3d 64a8 32bd
000002d0: cfe3 7a3b 65d7 903d 5e1d 73bd b23c a7bc
000002e0: 0506 993d 8cdb 653d 47cb d2bc 72c7 bfbd
000002f0: ebb8 e13c f389 403d a5f9 783d c9b3 f63c
00000300: 2008 7cbd 73f7 ffbc bd10 c23c 53f4 8dbc
00000310: 009d 573d 1e83 b6bd a401 353d 744b adbd
00000320: 223c 22bd 753f 513d 3404 5dbd e0ef 00bd
00000330: a80e 9c3d c6a1 3b3d ebb2 baba 7ec8 5ebc
00000340: 2ee4 acbd 88e5 d4bd 2989 47bd c8b1 5abb
00000350: 5efb 7c3c 1940 973d 6c6e 94bc af4d fc3c
00000360: 4065 50bd abbb 8d3c adb2 8a3b daf2 85bd
00000370: b0a7 4fbd cd95 533d 7d00 13bd 9683 263d
00000380: 0487 3dbd 887b e6bc 5b2c 2f3c 9085 2ebd
00000390: 0f48 10bd 16cb bebd 640b 91bc 8433 1a3b
000003a0: e5fc 04bc 9464 22bb 355c bcbd 1fdf b0bd
000003b0: 0bad 5b3d 0075 f03c e653 ae3c 9aba d4bd
000003c0: 3037 29be 5b90 98bc 3614 923d 7c8e 063e
000003d0: e21b 96bb 714e e63d 1f01 273e e401 02be
000003e0: 89f9 e93c bceb c1bd 3051 95bd f915 9f3c
000003f0: 3c07 fbbc 4ecd 4c3e 8840 013e 29a5 18bd
-0.00039686044 -0.04476145 -0.064236484 -0.1605169 0.09062559 -0.11911674 0.054131933 -0.04227649
-0.04874302 -0.019626228 -0.06563515 0.0086271465 -0.1428686 -0.04773901 0.011176789 -0.04104436
0.12362566 0.10445465 0.08267969 0.057711642 -0.032632127 0.102744654 0.048780248 0.06882771
-0.0008280682 -0.03289993 -0.006078099 -0.05131448 0.087130144 -0.09352275 -0.092591666 -0.055303164
0.11686491 0.090399474 -0.0349683 0.03842047 -0.0080915345 0.08793276 0.09584266 0.023986615
0.004191913 -0.12057274 -0.021272922 -0.03512853 0.08951454 -0.058772065 0.09774585 0.052065574
-0.035196103 -0.11232882 0.0829201 0.1009723 0.017883081 0.0067357877 0.061849073 0.01680578
0.10160142 -0.035692822 -0.07503848 0.023139719 -0.02414344 -0.014719448 -0.0054215193 -0.047925357
-0.034577042 0.122928984 0.027683835 0.03586536 -0.0026972685 0.09719647 0.076926515 -0.025976785
-0.06324654 0.058848765 -0.046976604 0.025427034 0.07218329 0.06281953 -0.02487376 -0.11429187
0.06318007 0.022363165 -0.02370324 -0.072460994 0.08954982 0.064203955 -0.029180074 -0.038949225
0.073898256 0.07887573 0.005536146 0.009472071 -0.0052821357 0.027290214 -0.05772442 -0.008368022
-0.046709277 -0.040298548 0.0129599115 -0.008221945 -0.08190463 0.08903779 -0.056624267 0.095186636
-0.03594477 0.016908253 -0.029935468 0.06094814 0.10585835 -8.212764e-05 -0.044308785 -0.036911085
-0.037877522 0.076561 0.09716517 -0.056145195 0.10615164 -0.034556594 0.022546768 -0.07344729
-0.040916696 -0.041771367 0.06651998 0.0057435934 -0.07798943 -0.06896052 -0.045226723 -0.11180818
-0.00718439 0.08396741 -0.033318225 -0.0417412 -0.10629945 -0.09922732 -0.017456204 0.052152768
0.02220051 0.07229682 -0.053796954 -0.06557301 -0.043385845 -0.080334805 0.024800131 0.07800912
-0.005072479 0.017379185 -0.09364312 -0.09994821 -0.03610857 0.08696952 0.032665975 0.06277807
-0.0712759 0.080908805 -0.0074043437 0.05996058 -0.013945164 -0.015734063 -0.084187515 -0.00010111792
-0.026332548 0.00027859604 0.0830236 -0.037705656 -0.05586984 -0.04429364 0.070600435 0.032503687
-0.03329312 0.08233908 0.07019684 0.05226844 0.05629633 0.029160008 0.11284273 0.012154025
0.058082756 -0.08698002 0.04562487 -0.04361762 0.0038282757 0.07072333 -0.05935418 -0.020414684
0.07471851 0.05611758 -0.025731696 -0.09364213 0.027553996 0.04700656 0.060784955 0.030115025
-0.061531186 -0.031245923 0.023689622 -0.017328417 0.05263996 -0.08911727 0.044191018 -0.08461657
-0.03960813 0.051085908 -0.053959087 -0.031478763 0.07619983 0.045808576 -0.0014243996 -0.013597606
-0.08441959 -0.10395342 -0.04871479 -0.0033370126 0.01544079 0.073852725 -0.01811906 0.030798761
-0.05087781 0.017301401 0.0042327256 -0.06540461 -0.05069703 0.051656533 -0.035889138 0.040652834
-0.04627134 -0.028135076 0.0106917275 -0.042607844 -0.03522497 -0.09316079 -0.017705627 0.002352924
-0.008116935 -0.0024779188 -0.091972746 -0.08636307 0.053631824 0.029352665 0.02128024 -0.10387154
-0.16524959 -0.018623522 0.07132761 0.13140291 -0.0045809606 0.1124543 0.16309021 -0.12696034
0.02856137 -0.09468791 -0.07290876 0.019419657 -0.030643098 0.20000193 0.12622273 -0.037266884

fc2.bias f4 [84]
00000000: 86b6 85bd 1a25 efbc d852 f2bd 3823 1fbd
00000010: 705e bcbd 9227 5fbd de2b d33d fda2 163d
00000020: ec74 f83d 4ca1 80bd 337a b43c 8768 b4bd
00000030: b612 e93e 5d59 1b3e d5fd 4c3e 770b 8d3d
00000040: ad4e 61be 878a 493d 3854 a8bd 38e1 03be
00000050: f948 9e3d eed5 86be 994c 0cbd 067c 42bd
00000060: 2b5e 16bd 4168 893d 5c6e 4d3d b7e3 4a3e
00000070: e228 d2ba e835 a1bd 1d53 af3d 284d 623b
00000080: 6483 2ebd dfaf 6e3e 9cf4 99bd fb53 18bd
00000090: 0962 4cbd 2f8c 9e3e 5617 fa3d 82a2 22be
000000a0: 22d9 04be 5be2 023c c958 5dbd 2b1f a3bc
000000b0: 7c3f 0abc bda9 0fbd 45f3 51bd 0abd be3d
000000c0: 3469 693d cc84 67bd 3f49 dbbd 2a00 e9bd
000000d0: 2217 133e 6293 153e 0bbd 5fbd b5a0 f8bc
000000e0: 01e1 e23c 73a3 653d af24 c9bd c185 81bd
000000f0: 6b44 873c 8e1e 9a3e 2477 62bd 4db1 243e
00000100: 7cad 12be ad5b 213e c8f1 65bd be84 9d3e
00000110: 3fc6 cf3d 8dad 323c 04eb 643c 2f8c 61be
00000120: fed0 dd3d 06dd 2abb 62f0 bf3d 533b 013d
00000130: 18e3 333d f7c3 2cbd b48f 083b 8c12 77bc
00000140: cf17 c5bd 9bfb c4bd 6051 cb3d 196b f83d
-0.06528954 -0.029192496 -0.118322074 -0.038851947 -0.091977 -0.054481097 0.103111014 0.03677653
0.12131676 -0.06280765 0.022030925 -0.088089995 0.45522088 0.15170808 0.20018704 0.06886952
-0.22002669 0.049204376 -0.082191885 -0.12878883 0.07728762 -0.2633509 -0.034252737 -0.04748156
-0.0367109 0.06709338 0.050154075 0.19813429 -0.0016033913 -0.0787161 0.085607745 0.0034530852
-0.042605773 0.23309277 -0.07517359 -0.037189465 -0.04989818 0.30966327 0.12211482 -0.15882304
-0.12973455 0.007988538 -0.05403975 -0.019912323 -0.008437987 -0.035073984 -0.05125739 0.093134
0.056985095 -0.05652313 -0.1070733 -0.113769844 0.14364293 0.14607003 -0.054623645 -0.030350069
0.02769518 0.05606408 -0.0982145 -0.0632434 0.016512116 0.30101436 -0.055289403 0.1608326
-0.14323992 0.15757628 -0.056138784 0.30765337 0.10145234 0.010905636 0.013972048 -0.22026132
0.10830878 -0.0026071682 0.09372021 0.031550717 0.043917745 -0.042179074 0.0020837607 -0.0150801055
-0.09623682 -0.096183024 0.099276304 0.12129802

fc3.weight f4 [10, 84]
00000000: 8565 9d3d e573 743b 2385 90bd 47f6 773e
00000010: 9153 20be d7b2 163e ee68 5cbe 214b e5be
00000020: c1e6 d9be a81c 6c3e b382 9d3c e8ad 98bd
00000030: 70bb d5be a377 3fbe c98c 66bd 7bc7 543e
00000040: 83e0 873e 1fe4 5c3e c19f 7dbd be1c 20be
00000050: 4261 243e 0098 003f c6d4 87be af27 ff3d
00000060: 8ccb 90bc 4757 c63c 7367 4fbd 5b31 cebe
00000070: d64b 86be 2068 c33c b555 073c 8607 21be
00000080: 272f c83d 6701 17be 24d7 17bc 4090 c83e
00000090: 1252 e13e 6d3c 10be 5ed7 4bbe 2147 1dbe
000000a0: c59d 81be 2069 083e f49e 093d daeb 22b7
000000b0: f4a0 d13b cf92 863e 74fe fcbd 8bcc 903c
000000c0: 012a 4b3e 9177 153f 634d 8e3e 779e 89bd
000000d0: 44ef 3dbe a4ce d1be 3376 5cbd b450 2dbe
000000e0: 3d25 873e b4eb 69be 3f66 2c3e 1b2e 89bd
000000f0: e098 b73e e88d a7be 3b73 2c3d 52a5 9ebe
00000100: 2c68 a93b 6163 e33e eafe 133e 7482 d23d
00000110: 3ddb c83e e7e8 83be 140e db3e a210 1dbe
00000120: 7d42 473d 7c3d 453d 671d ad3e 348e 343f
00000130: 8a9d d5be 30c3 a73e 616a 3f3c febb bb3d
00000140: 7b75 9fbd 9406 42be a9ac f7bc 6488 67be
00000150: 0469 1a3d a09f fc3d 1f6f 92be 415f f4bd
00000160: 2ab1 8f3d 2e05 d43d 34d1 c0be d8b9 d23e
00000170: eeb3 2e3d f323 80bd bc23 65be 2254 bb3d
00000180: ed9a 11bf 59f6 b1be 1382 8a3d 934e 04bf
00000190: 9e19 afbc b99a 833e df03 8abb 97b6 3e3e
000001a0: 18b4 a6bd 6a76 ad3e 04a8 c33e d141 f1bc
000001b0: 7e89 a0bd 3e6c d53b c65a 11be 476f 2e3e
000001c0: abf3 e83d f39b 823e e605 b03b 7f20 f13d
000001d0: f291 0ebe c3b6 1abf 4e13 343c 24b5 e43d
000001e0: 894f 28bd ae9e a1be 4c6c 13bf ec3f 223f
000001f0: 5831 373f 0de0 623d 133c 0f3e bf15 4b3e
00000200: 6c10 453c 44f3 e33c a496 0f3d 9d46 553e
00000210: 2c7a 173e 6020 67bd 8f1e 903c 1f9c dd3e
00000220: bbd4 8b3d d20e be3e b974 d13d b489 4bbd
00000230: 2cc3 913d ef35 cdbd 2202 dcbb a386 de3d
00000240: facd 81bd dd31 9fbb 8c85 3d3e 0a31 f4be
00000250: 71d6 0abe a858 32bd 176f 06be 57ce b0be
00000260: e7a2 3f3e f766 c13d 1f5e e9be b54a d03d
00000270: 7b8a c6be 8504 fd3d d213 f8bd ef83 47be
00000280: d990 3f3c bdf0 823e dabb 8d3d 4276 993e
00000290: c5e3 c43d 369f 0f3e 9c75 ec3d fba7 49be
000002a0: bb06 02be 9b9b 85bd c8d5 143f 9b03 ca3e
000002b0: ceaa 693e ca70 733c 9c7b 243e e79a 403e
000002c0: b14b 073d f0d6 1fbe 80e4 ebbd a340 103f
000002d0: 1cb9 98bd 7e2b 3ebd 2537 81bd ca4a 87bb
000002e0: 92c2 ce3e 7513 6a3e b0c2 77be 7ec1 ed3d
000002f0: 5a36 8f3e de0b ab3e 09e2 dc3e aefe 893e
00000300: 3028 aabd e8d1 153e ecb9 063e 4867 14bd
00000310: 51f1 aabe 4671 f43d 77e7 22be 5871 32bd
00000320: b200 21be de7d 95be 19fb b83d 1d34 7f3d
00000330: d247 3f3f c693 20be 51c4 adbd 3955 0cbf
00000340: 7ed6 a63e ed7b d9be 4cb0 6d3e 9dd2 2e3d
00000350: c582 3bbd aeab 66bd dbdc 083d 8e79 133e
00000360: 9146 743d 7f46 5c3e 7329 82bd eaa4 57be
00000370: 260c 1b3f 119c 1bbe a7c5 24be dda7 5ebe
00000380: 84a0 35be a9cc 163f 4c44 d53c 667b 3bbd
00000390: 73da edbd 3bc4 603e 1799 433e 997b e03c
000003a0: 371f 983d 289f 69bd c50e 40be 2d13 b23e
000003b0: 23c4 19be 2a15 6d3d e1eb 13be 3a66 82be
000003c0: 130f f83e 0b24 98be 8e02 673e ac08 e33e
000003d0: 1778 c73d bcc5 f6be c0f0 b53d 2444 59be
000003e0: d935 bfbd af98 d43c c31c d5be 7f71 203e
000003f0: 651a 1fbe 344f a93b e14f 8e3d 3828 25be
0.07685379 0.0037300524 -0.07056644 0.24215041 -0.15656878 0.1471666 -0.21524402 -0.4478388
-0.42558864 0.23057806 0.019227361 -0.07455045 -0.41744566 -0.18697982 -0.056286607 0.20779221
0.26538476 0.21571396 -0.06191993 -0.15635964 0.16052726 0.50231934 -0.2652952 0.12458741
-0.017675184 0.024211539 -0.050635766 -0.4027203 -0.26229733 0.023853362 0.00826018 -0.15725526
0.097746186 -0.14746629 -0.009267602 0.39172554 0.44007927 -0.1408555 -0.19906375 -0.15359165
-0.2531568 0.13321352 0.033598855 -9.710866e-06 0.006397361 0.2628388 -0.123532206 0.017675659
0.19840242 0.5838557 0.27793416 -0.06719678 -0.18548304 -0.40977967 -0.05382366 -0.16925317
0.26395598 -0.2284382 0.16835879 -0.06698247 0.35858822 -0.32725453 0.04210208 -0.30985504
0.005169889 0.44411758 0.14452711 0.10278788 0.39229766 -0.25763628 0.42784178 -0.15338376
0.048647393 0.04815434 0.33811495 0.70529485 -0.41721755 0.32766104 0.011683078 0.09166716
-0.077860795 -0.18947822 -0.030233698 -0.22610623 0.037697807 0.123351336 -0.28600404 -0.11932231
0.07016213 0.103525504 -0.3765961 0.41157413 0.042652063 -0.06256857 -0.22376913 0.091469064
-0.56877023 -0.3475826 0.06763091 -0.51682395 -0.02137452 0.25703982 -0.0042118873 0.1862434
-0.08139819 0.33879405 0.38214123 -0.029450329 -0.078387246 0.0065131476 -0.14194784 0.17034636
0.11374601 0.25509605 0.005371797 0.11773776 -0.13922861 -0.6043512 0.010990931 0.11167362
-0.041091476 -0.31566375 -0.5758712 0.6337879 0.7155967 0.055389453 0.1398776 0.19832514
0.012027841 0.027825959 0.03505577 0.20827718 0.14792699 -0.05642736 0.017592696 0.43283173
0.068276845 0.37120682 0.10227341 -0.04969187 0.07117304 -0.10020053 -0.0067141214 0.10865524
-0.06338115 -0.004858239 0.18507975 -0.47693664 -0.13558365 -0.04354158 -0.13128315 -0.34532425
0.18714486 0.09443467 -0.4557962 0.10170499 -0.38777527 0.12354378 -0.121131554 -0.19483922
0.011692249 0.25574294 0.069205955 0.29973036 0.09613756 0.14025578 0.1154587 -0.19692986
-0.1269788 -0.0652382 0.58138704 0.39455876 0.22819063 0.014858434 0.16062778 0.1880909
0.03303117 -0.15609336 -0.11518192 0.5634863 -0.07457182 -0.046428196 -0.06309346 -0.0041287886
0.4038282 0.22858985 -0.24195361 0.11609171 0.27971154 0.3340749 0.431412 0.26952118
-0.083084464 0.14630854 0.13156861 -0.03623131 -0.33387235 0.11935668 -0.1590861 -0.043565124
-0.15722921 -0.29197592 0.09032268 0.06230556 0.74718964 -0.15681371 -0.0848471 -0.5481754
0.3258552 -0.4247736 0.23211783 0.042681325 -0.04577901 -0.05631607 0.03341375 0.14401838
0.05963761 0.21511267 -0.06355562 -0.21059003 0.6056541 -0.15196253 -0.16091023 -0.21743722
-0.17737013 0.58906037 0.026033543 -0.04577198 -0.116139315 0.21949856 0.19101368 0.027402686
0.07427829 -0.05703655 -0.18755634 0.34780255 -0.15016226 0.05788151 -0.1444545 -0.25468618
0.48449 -0.29715 0.22559568 0.44342554 0.09739702 -0.48197734 0.0888381 -0.212174
-0.093364425 0.025951711 -0.41623506 0.15668295 -0.15537412 0.0051669125 0.069488294 -0.16128623

fc3.bias f4 [10]
00000000: dc33 373c f77f 01bf 4029 f6bc 0394 653e
00000010: a18a 0c3f f1c1 c23c 6fe8 08be e76f 43be
00000020: 507e 923e a0ac 35be
0.011181798 -0.50585884 -0.030048966 0.22419743 0.5489903 0.02377412 -0.13369916 -0.19085656
0.28611994 -0.17741632
