trained_net.pth (torch, 368624 bytes, 10 tensors)

conv1.weight f4 [12, 3, 5, 5]
0	0xbdfc173b	-0.12309118
1	0xbe045647	-0.12923537
2	0xbe0a1c86	-0.13487443
3	0xbe50ed0e	-0.20402929
4	0xbbc0d01a	-0.0058841826
5	0xbe38cb63	-0.18046336
6	0xbe87f4a5	-0.26553836
7	0xbe96142f	-0.29312274
8	0xbdad8208	-0.08472067
9	0xbb687360	-0.003546916
10	0xbe46c33e	-0.19410416
11	0xbe1f9821	-0.15585376
12	0xbe7bc932	-0.24588469
13	0xbe1b83b8	-0.15186965
14	0xbd3a8184	-0.045533672
15	0xbe25ed4d	-0.16203804
16	0xbcb804ac	-0.022463165
17	0xbdbbc7f9	-0.09169001
18	0x3b8dbdb3	0.0043255924
19	0xbd96c10f	-0.07361042
20	0xbd0a82c8	-0.03381613
21	0xbbb1b6b4	-0.0054233912
22	0x3d8192f4	0.06326857
23	0x3df85332	0.12125243
24	0x3d42334e	0.04741221
25	0x3dc5d574	0.096598536
26	0xbda02e2d	-0.07821307
27	0xbd5d08ea	-0.05396358
28	0xbcde5665	-0.027140805
29	0x3dfb519b	0.122714244
30	0x3dab14b5	0.08353559
31	0xba74f221	-0.00093439413
32	0x3d76674a	0.060157098
33	0x3d34f714	0.044180945
34	0xbde53ee7	-0.11193638
35	0xbd445f11	-0.047942225
36	0x3d2cd0ae	0.0421912
37	0x3d98bd33	0.07457962
38	0xbc583bb7	-0.013197831
39	0xbbb93b5f	-0.0056528295
40	0xbd14c50b	-0.036320727
41	0x3e2cb496	0.16865763
42	0x3d33e117	0.043915834
43	0xbde5dcaf	-0.11223733
44	0xbe57d303	-0.21076588
45	0xbd879f24	-0.066221505
46	0x3d2b437c	0.041812405
47	0x3e1decb0	0.1542232
48	0xbd7d8991	-0.06189877
49	0xbd8f04fa	-0.06983371
50	0x3e9412c1	0.28920558
51	0x3e20e483	0.1571217
52	0x3e87b75d	0.26507083
53	0x3d9f008c	0.07763776
54	0x3e082079	0.13293637
55	0x3ea2f561	0.31827834
56	0x3ea1bab8	0.31587768
57	0x3e268881	0.1626301
58	0xbcaa2a9d	-0.020772273
59	0x3d284d81	0.04108954
60	0x3e94ac6e	0.29037803
61	0x3e7c05a8	0.24611533
62	0x3e70aaa2	0.23502591
63	0x3e0c7eae	0.137202
64	0xbd73ca6b	-0.059519213
65	0x3dd52004	0.10406497
66	0x3e5b41fa	0.21411887
67	0x3eb54667	0.35405275
68	0x3d9fd7af	0.0780481
69	0xbe1c07a5	-0.15237291
70	0x3d9c2e19	0.0762598
71	0x3d46418e	0.04840236
72	0x3e6d9f49	0.23205294
73	0x3e109929	0.14120926
74	0xbd2584fa	-0.04041002
75	0x3dd944f8	0.10608858
76	0xbd5418c4	-0.05178143
77	0x3ea32e6d	0.31871358
78	0xbdc59d0f	-0.09649097
79	0x3e26f10c	0.1630289
80	0x3ef07a98	0.46968532
81	0x3e577f31	0.21044613
82	0x3f3d1689	0.7386251
83	0x3eada430	0.33914328
84	0x3e5676dd	0.2094378
85	0x3e15a4ac	0.14613599
86	0xbdffba9e	-0.12486766
87	0x3efa6f81	0.48913196
88	0xbda8142d	-0.08206973
89	0xbdd55358	-0.10416287
90	0xbe8ecad2	-0.27889115
91	0xbf3c69ac	-0.7359874
92	0xbda72274	-0.08160868
93	0xbf31c61e	-0.6944293
94	0xbeebfbdb	-0.46090588
95	0xbc68ee56	-0.01421698
96	0xbec8e9d1	-0.39240888
97	0x3e8b4e1a	0.27208024
98	0xbe9a4236	-0.3012864
99	0x3d29bd0c	0.041440055
100	0xbcfc57d6	-0.030803602
101	0xbefffcc2	-0.49997526
102	0xbe0687d6	-0.13137755
103	0xbeb9a1e2	-0.3625632
104	0xbe13ed15	-0.14445908
105	0x3ea47a87	0.3212473
106	0xbe29bc9a	-0.16575852
107	0x3ea55451	0.3229089
108	0x3e048ff7	0.12945543
109	0x3e8be51c	0.27323234
110	0x3dd4dceb	0.10393699
111	0xbeb01183	-0.3438836
112	0x3ef2c902	0.47418982
113	0xbdd45262	-0.10367276
114	0x3e03410c	0.12817782
115	0xbe3baffa	-0.18328848
116	0xbee481ab	-0.4463018
117	0x3d74698b	0.059670966
118	0xbed37e8a	-0.4130748
119	0xbea845e6	-0.32865828
120	0x3e95e8c5	0.29279152
121	0xbc429e6e	-0.011878593
122	0x3eca6736	0.3953187
123	0x3d8a63b6	0.067572996
124	0x3e6c4a96	0.23075327
125	0x3bec8e1f	0.0072190906
126	0xbedd7f77	-0.4326131
127	0xbd141682	-0.036154278
128	0xbece7d5c	-0.40330017
129	0xbe803b69	-0.25045326
130	0x3e1b0c71	0.15141465
131	0xbe7cf109	-0.24701323
132	0x3e2ff95b	0.17184965
133	0xbdd8d26c	-0.1058701
134	0x3e99a2dc	0.30007064
135	0x3d60e456	0.054905258
136	0xbdf24e3e	-0.1183133
137	0x3e17cd63	0.14824443
138	0x3d1295c4	0.03578736
139	0x3e409c74	0.18809682
140	0x3e1a4f8b	0.15069406
141	0xbe9a7f30	-0.3017516
142	0x3c861a62	0.016370002
143	0xbe9b96a5	-0.3038837
144	0x3bf2216a	0.007389237
145	0x3ebfbff3	0.37451133
146	0x3bc21aa1	0.0059235846
147	0x3efa662f	0.48906085
148	0x3e44ae86	0.192072
149	0x3eab4af9	0.33455637
150	0x3dbf96d8	0.09354943
151	0xbd1c97d4	-0.038230732
152	0xbe451eac	-0.19249982
153	0xbe4a6b09	-0.19767393
154	0xbac5b801	-0.0015084745
155	0xbe022a09	-0.12711348
156	0xbe976236	-0.29567116
157	0xbe83263f	-0.25615117
158	0xbe814477	-0.25247547
159	0xbe228d8f	-0.15874313
160	0xbd1a7d91	-0.037717406
161	0xbe467f77	-0.19384561
162	0xbe16c5b2	-0.14723852
163	0xbe88619d	-0.26636973
164	0xbe0967b0	-0.1341846
165	0xbe8d8f22	-0.27648264
166	0xbe5df9a5	-0.21677263
167	0xbe94a7be	-0.29034227
168	0xbe7ef3f7	-0.24897753
169	0xbe800e8f	-0.25011107
170	0xbdb45b89	-0.088065214
171	0xbd77f462	-0.060535796
172	0xbe0487bb	-0.12942402
173	0xbe5229c0	-0.20523739
174	0x3a1c367d	0.0005959047
175	0x3c2171c4	0.009853784
176	0xbd9279a7	-0.071521096
177	0x3d445f2a	0.047942318
178	0x3cf22017	0.029556317
179	0x39d061f2	0.00039745827
180	0xbd190f79	-0.03736827
181	0xbcc7d0f9	-0.024391638
182	0x3dfeddd7	0.12444656
183	0x3df66cde	0.120324835
184	0x3de4a7d5	0.11164824
185	0x3e3a9de1	0.18224289
186	0x3e94fcfe	0.29099268
187	0x3e02f389	0.12788214
188	0x3dff95e9	0.12479765
189	0x3d8e20d4	0.06939855
190	0x3d4af168	0.04954663
191	0x38cfc2e6	9.906832e-05
192	0x3c9d79f2	0.019223187
193	0xbce82f8f	-0.02834299
194	0x3b9d7630	0.004805349
195	0x3e27ee09	0.16399397
196	0x3db8bd74	0.0902051
197	0x3dd9fd9a	0.10644074
198	0xbd1f6d3a	-0.038922526
199	0xbdbd0ad5	-0.09230582
200	0xbdeed147	-0.1166101
201	0xbd18f7be	-0.03734564
202	0x3e0d0d75	0.13774665
203	0xbd656570	-0.05600494
204	0x3d2d9fb3	0.04238863
205	0xbe0e8c5b	-0.13920729
206	0xbd31b388	-0.043384105
207	0x3e0f09ef	0.13968633
208	0x3da00400	0.07813263
209	0x3dca9b17	0.09892862
210	0x3d998b43	0.07497265
211	0x3e9ba31f	0.3039789
212	0x3eabb50b	0.33536562
213	0x3e657e87	0.22411548
214	0x3dfe37cc	0.12412986
215	0x3d8d100f	0.068878286
216	0x3d1ec846	0.038765214
217	0x3e805e46	0.25071925
218	0x3d93f952	0.072252885
219	0x3e160fc8	0.14654458
220	0x3c8682c8	0.016419783
221	0x3e0f20ed	0.13977404
222	0x3db4cdeb	0.08828338
223	0x3d91fe38	0.071285665
224	0x3db514f1	0.08841885
225	0xbd8cd4a1	-0.06876493
226	0x3e328d52	0.17436722
227	0xbdb28bf0	-0.08718097
228	0x3dcef033	0.10104408
229	0xbd702551	-0.058629338
230	0x3e09a071	0.1344011
231	0x3e7870a2	0.24261716
232	0xbf0f22d8	-0.5591254
233	0x3e1b609a	0.1517357
234	0xbba4db74	-0.0050310437
235	0x3e64083b	0.22268765
236	0x3e1f61a8	0.15564597
237	0xbf6a1970	-0.91445065
238	0x3ef496c1	0.47771266
239	0x3c533cec	0.012892943
240	0x3e9290b2	0.2862602
241	0x3e35da7a	0.17759123
242	0xbf6d9cbd	-0.9281729
243	0x3f2641bb	0.64944047
244	0xbd480969	-0.0488371
245	0x3df36539	0.11884541
246	0xbcf2fba6	-0.029661011
247	0xbf1981ef	-0.5996389
248	0x3f10cd54	0.56563306
249	0xbd84ee08	-0.06490713
250	0x3dd76f67	0.10519295
251	0x3e19d936	0.15024266
252	0xbea8c118	-0.3295982
253	0x3adb589b	0.001673478
254	0x3d86af74	0.06576434
255	0x3dbd50b5	0.09243909

conv1.bias f4 [12]
0	0x3eb58f06	0.3546068
1	0xbe3b8b0f	-0.18314765
2	0x3f248573	0.6426613
3	0xbde611e5	-0.11233882
4	0xbdc1cfef	-0.09463488
5	0xbe7c98bb	-0.24667637
6	0x3da00db9	0.078151174
7	0xbe84d402	-0.25943
8	0x3e20de45	0.15709789
9	0xbea1125b	-0.31459317
10	0xbdc958d8	-0.09831399
11	0x3e71afaf	0.23602174

conv2.weight f4 [24, 12, 5, 5]
0	0xbd7243c5	-0.05914666
1	0x3d631c08	0.055446655
2	0x3cc9cc29	0.024633484
3	0xbcdb9d94	-0.026808538
4	0x3dc520cf	0.09625398
5	0x3da18e02	0.07888414
6	0x3da83d21	0.082147844
7	0x3cc4b780	0.02401328
8	0x3d777b25	0.060420174
9	0x3ddf0442	0.10889484
10	0x3d8f677f	0.07002162
11	0xbce44f1a	-0.02786975
12	0x3dc1ece2	0.0946901
13	0x3c9a0912	0.018803153
14	0xbb10ad53	-0.0022075966
15	0xbc3e4199	-0.011612319
16	0xbdb5e52c	-0.08881602
17	0xbe12d2f6	-0.14338288
18	0xbb6900ab	-0.0035553377
19	0x3c358392	0.011078732
20	0xbd0cded4	-0.034392193
21	0xbc570ad8	-0.013125144
22	0xbd17df9e	-0.037078492
23	0xbc7328d3	-0.014841276
24	0xbc9f2735	-0.019427875
25	0x3d45dbff	0.048305508
26	0x3ca5ebec	0.020254098
27	0x3dc2e77f	0.095168106
28	0x3dc89923	0.097948335
29	0x3dbb96fd	0.09159658
30	0xbd83fe74	-0.064450175
31	0xbbdcd905	-0.006739738
32	0x3da94b48	0.08266312
33	0x3be8b6db	0.007101876
34	0xbd9b7a74	-0.075917155
35	0xbd105d6f	-0.035245355
36	0xbc6936b3	-0.014234233
37	0x3dc9cf4e	0.09853993
38	0x3d2466db	0.040137153
39	0x39c1c7e6	0.00036960765
40	0x3e01cfb4	0.12676889
41	0x3e02da5e	0.12778613
42	0x3e256a45	0.1615382
43	0xbd421daf	-0.04739159
44	0xbe1855dd	-0.14876504
45	0x3dec95d8	0.11552018
46	0x3de19e1a	0.110164836
47	0xbccc6a7e	-0.024953123
48	0xbce68bfc	-0.028142922
49	0xbe0de046	-0.13855085
50	0xbc60e44e	-0.013726307
51	0xbdd8ba9b	-0.10582467
52	0xbd6e0498	-0.05810985
53	0xbe1a2a07	-0.15055095
54	0xbde22dcf	-0.110438935
55	0xbdf91bc9	-0.12163503
56	0xbd4e4a00	-0.05036354
57	0x3c20bf72	0.009811269
58	0xbd887394	-0.0666267
59	0xbd24972c	-0.04018323
60	0xbe014dd9	-0.12627353
61	0xbde183f9	-0.110115
62	0xbdcede48	-0.101009905
63	0xbe217025	-0.15765436
64	0xbe05011d	-0.12988706
65	0xbd8f6d3f	-0.07003259
66	0xbd959ae6	-0.07304935
67	0xbcbeb62a	-0.023280222
68	0xbe084178	-0.13306224
69	0xbd137e01	-0.03600884
70	0x3cd0991e	0.025463637
71	0x3db6980f	0.089157216
72	0x3d8867e4	0.066604406
73	0x3dbe4f3e	0.09292458
74	0x3d1a4344	0.037661806
75	0x3d241eba	0.040068366
76	0x3d84f288	0.06491572
77	0x3dc89ef1	0.09795941
78	0x3c7598ae	0.014990015
79	0xbe0a1a85	-0.13486679
80	0x3d0b0a72	0.03394551
81	0x3c8efd42	0.017454747
82	0xbd1421a1	-0.036164884
83	0xbd67a8d7	-0.056557503
84	0x3d4babcb	0.04972438
85	0x3d0f8548	0.035039216
86	0xbbe699bb	-0.007037369
87	0xbd4cfac8	-0.05004385
88	0x3db51662	0.0884216
89	0x3e0d37f3	0.13790874
90	0x3d61ad02	0.055096634
91	0x3d5ddc8a	0.0541654
92	0xbbc47ba9	-0.0059961868
93	0x3d541e3f	0.051786657
94	0xbcedbeb1	-0.029021593
95	0xbda9ece2	-0.08297135
96	0xbdf32c8c	-0.11873731
97	0xbe5f3619	-0.2179798
98	0xbe6e9895	-0.23300393
99	0xbe03f916	-0.12887987
100	0x3ce864f0	0.028368443
101	0x3ce25d3e	0.027632352
102	0xbd238a89	-0.03992704
103	0xbb304a02	-0.002689958
104	0xbd917021	-0.07101465
105	0xbda4c937	-0.08046191
106	0xbe471e1b	-0.19445078
107	0xbd1ff0ef	-0.03904813
108	0xbc94f642	-0.018183831
109	0xbd2bc5ee	-0.041936807
110	0x3c5ce570	0.013482437
111	0xbd0c2e46	-0.034223817
112	0x3da5ecde	0.081018195
113	0xbd39cd50	-0.045361817
114	0x3e6d14ff	0.2315254
115	0x3d9246d5	0.071424164
116	0x3e31e9e7	0.17374383
117	0x3e505a6c	0.20346993
118	0x3e1800e4	0.1484409
119	0x3de61d45	0.112360515
120	0x3e96e2c9	0.29469898
121	0x3e3d99c2	0.18515685
122	0x3e047be5	0.12937887
123	0x3dc6fcd7	0.09716194
124	0xbe081a99	-0.13291396
125	0xbc9086d0	-0.017642409
126	0xbcd78cc9	-0.026312249
127	0x3d980bbe	0.07424115
128	0x3ca7a05d	0.02046221
129	0xbe099439	-0.13435449
130	0xbd02449c	-0.031803712
131	0xbce0c406	-0.027437221
132	0xbbbe6f77	-0.0058116275
133	0x3c717eab	0.014739673
134	0xbe329f17	-0.174435
135	0x3c80e684	0.015734918
136	0xbd44c489	-0.048038993
137	0x3d267bf0	0.04064554
138	0xbe075ae5	-0.13218267
139	0x3e572172	0.21008852
140	0xbd6c6159	-0.057710025
141	0xbd3f445e	-0.04669606
142	0x3bd8e5f1	0.006619208
143	0xbd6fb8a2	-0.05852569
144	0x3e7a15d6	0.24422392
145	0xbd8282f0	-0.063726306
146	0xbd71d539	-0.059041236
147	0xbd87f9c2	-0.066394344
148	0x3d1baa4f	0.038004216
149	0x3d92e669	0.071728535
150	0xbdf95cea	-0.12175925
151	0xbd1bf390	-0.038074076
152	0xbaa1cbf4	-0.0012344108
153	0xbd3b699d	-0.045755018
154	0x3dd577ce	0.104232416
155	0xbd441b01	-0.047877315
156	0xbdf5b1cb	-0.11996802
157	0xbe0e2b66	-0.13883743
158	0xbd0cfd5c	-0.03442131
159	0xbc895841	-0.016765716
160	0xbda6694b	-0.08125552
161	0xbd909d68	-0.07061273
162	0xbd014872	-0.03156323
163	0xbcfcd894	-0.030864991
164	0xbdbca157	-0.09210461
165	0xbb9148af	-0.0044337134
166	0xbcc9c347	-0.024629248
167	0x3d890f0b	0.06692322
168	0xbd823c6d	-0.063591816
169	0x3d4fd769	0.05074254
170	0xbd89464e	-0.06702863
171	0xbca7a037	-0.020462139
172	0xbd4778b6	-0.048699103
173	0xbdb4166d	-0.0879334
174	0xbdb9c7fe	-0.090713486
175	0x3d00471e	0.031317823
176	0xbdbd8ace	-0.092549905
177	0x3dd0d87c	0.10197541
178	0x3cd5f65a	0.026118446
179	0x3bbfbf8f	0.005851693
180	0x393a0388	0.00017739658
181	0xbd121439	-0.035663817
182	0xbd2b3a46	-0.04180362
183	0xbd014bac	-0.031566307
184	0xbd4a10fb	-0.0493326
185	0xbc929e54	-0.017897762
186	0x3d044ad4	0.032297924
187	0x3db86427	0.090034775
188	0xbb0569d4	-0.0020357268
189	0xbe4d6c7e	-0.20060918
190	0x3daf45d5	0.08558241
191	0x3dfa2700	0.1221447
192	0x3dd22f5a	0.10262938
193	0xbe3aaad7	-0.18229233
194	0xbea80d99	-0.32822874
195	0x3e043f0e	0.12914678
196	0xbd806250	-0.062687516
197	0xbe2bbb04	-0.1677056
198	0xbdb91c15	-0.09038559
199	0xbe0f1b41	-0.1397524
200	0x3d53bb1f	0.051692124
201	0x3cf15300	0.029458523
202	0x3db8d6f0	0.09025371
203	0xbca2d8eb	-0.019878825
204	0x3cc502c6	0.024049174
205	0x3d5e6d93	0.054303717
206	0xbd4f8727	-0.050666
207	0x3d8dab59	0.069174476
208	0x3db3855c	0.08765671
209	0x3dcb7712	0.0993482
210	0xbd4e4b11	-0.050364558
211	0xbd3c3a95	-0.045954306
212	0xbcb5cf36	-0.022193532
213	0x3dc1cb95	0.09462658
214	0x3cf973a2	0.030450646
215	0x3c2a1ffb	0.010383601
216	0xbd132ba1	-0.03593028
217	0xbcc36286	-0.02385069
218	0xbd15afc1	-0.036544565
219	0x3db06818	0.08613604
220	0x3d091229	0.033464584
221	0xbd5499b3	-0.05190439
222	0xbd9d61f9	-0.076847024
223	0x3de9f4fd	0.11423681
224	0x3e339540	0.17537403
225	0x3d3e6725	0.046485085
226	0x3cca3099	0.024681376
227	0x3ddfa55a	0.1092021
228	0x3dfd9af8	0.123830736
229	0x3e071fca	0.1319572
230	0x3dd32c85	0.10311226
231	0x3d249503	0.04018117
232	0x3c9ca1f2	0.01912019
233	0xbd5906c4	-0.052984968
234	0x3dc6882c	0.096939415
235	0x3dda95ec	0.106731266
236	0x3e38632d	0.18006583
237	0xbc064317	-0.008194706
238	0xbcac3c85	-0.021024952
239	0x3b8bb7bc	0.004263846
240	0x3e06ed28	0.13176405
241	0x3df870be	0.12130879
242	0x3d7f9ccc	0.062405393
243	0x3d8eac42	0.06966449
244	0x3dc45c0d	0.0958787
245	0x3e26561f	0.1624379
246	0x3ce0f2ad	0.027459467
247	0x3cdf8f61	0.027290048
248	0xbc8607e5	-0.016361186
249	0x3c80514a	0.015663762
250	0xbba8c2f8	-0.005150195
251	0xbc6aecb6	-0.014338663
252	0xbd185481	-0.037189964
253	0xbd518b70	-0.05115837
254	0xbdbeee28	-0.093227684
255	0xbd9d87c7	-0.07691913

conv2.bias f4 [24]
0	0xbe3e5cba	-0.1859006
1	0xbe887bd0	-0.2665696
2	0xbed70508	-0.41996026
3	0xbd0357b1	-0.03206605
4	0x3f344314	0.70414853
5	0x3ed35751	0.41277555
6	0x3d5dd602	0.054159172
7	0xbdc2d446	-0.09513144
8	0xbbd83214	-0.0065977667
9	0x3dc9de7d	0.098568894
10	0xbf0ae134	-0.5424988
11	0x3e8fb6d9	0.2806919
12	0xbe913d41	-0.28367046
13	0x3ebf82fe	0.37404627
14	0x3e1e4017	0.15454136
15	0xbdd64b23	-0.1046355
16	0xbe005179	-0.1253108
17	0xbe88b441	-0.26700023
18	0xbe296542	-0.16542533
19	0xbdbfe692	-0.0937015
20	0x3ee2e03a	0.44311696
21	0x3e99dea0	0.30052662
22	0xbdc924c0	-0.09821463
23	0xbe00463f	-0.12526797

fc1.weight f4 [120, 600]
0	0x3ca07571	0.01958725
1	0xbcd218e6	-0.025646638
2	0xbcada067	-0.02119465
3	0xbcdc455b	-0.02688854
4	0x3bce7f5f	0.006301805
5	0xbd21bab0	-0.03948468
6	0xbc90d4eb	-0.017679652
7	0x3bcd9e36	0.0062749637
8	0x3c3e48e3	0.011614057
9	0x3d7f4f84	0.06233169
10	0x3c854b18	0.016271159
11	0xbdaff9d5	-0.085925736
12	0xbd9fce5e	-0.07803033
13	0xbc47dcc7	-0.0121986335
14	0x3cbe221a	0.02320962
15	0xbb90d0fc	-0.004419444
16	0xbd95b095	-0.07309071
17	0xbd353592	-0.04424054
18	0xbc1fc5bb	-0.009751732
19	0x3d5f1ea4	0.05447258
20	0x3cd93ca7	0.02651818
21	0xbd1ea280	-0.03872919
22	0xbca6e751	-0.020373972
23	0x3cea1935	0.028576473
24	0x3d30adfa	0.043134667
25	0xb9b6e8a3	-0.00034887073
26	0xbc905673	-0.017619347
27	0xbc81ee0b	-0.015860578
28	0xbd9ad702	-0.07560541
29	0xbc0a3792	-0.008436101
30	0xbd1b4593	-0.037908148
31	0x3c873181	0.016503097
32	0x3d3c8870	0.046028554
33	0xbda0914d	-0.07840214
34	0xbd542d71	-0.05180115
35	0xbb4988fb	-0.0030751813
36	0xbc1970de	-0.009365289
37	0x3d76e58f	0.060277518
38	0x3caccdd1	0.021094235
39	0x3d6672cc	0.056261823
40	0x3d4a0cb3	0.049328517
41	0xbd94ed1d	-0.07271788
42	0xbdd0abc5	-0.101890124
43	0xbd48bfa1	-0.049010877
44	0x3c0283b2	0.007965969
45	0xbce7c3e7	-0.028291656
46	0xbd9156ba	-0.0709662
47	0xbc07d74f	-0.00829108
48	0xbd458acf	-0.04822808
49	0xbb95e537	-0.0045744437
50	0xbbd7beaf	-0.0065840106
51	0x3c4ec1fa	0.01261949
52	0x3c9b2327	0.01893766
53	0x3d6b460e	0.057439856
54	0x3d6be75e	0.057593696
55	0x3c7755ab	0.015096108
56	0xbcea83f6	-0.028627377
57	0x3df5925c	0.119908065
58	0x3cac438a	0.021028299
59	0x3c3001f4	0.010742653
60	0x3d4717b3	0.048606586
61	0x3ca8d593	0.020609653
62	0x3df2327a	0.11826034
63	0x3d578a5d	0.052622188
64	0x3d2bb4e7	0.04192057
65	0x3c94abe1	0.018148364
66	0x3c59f409	0.013302811
67	0x3caf69bb	0.02141272
68	0x3c340bcc	0.010989141
69	0xbc92fd4f	-0.017943053
70	0x3d52c06f	0.05145305
71	0x3cbd9895	0.023144046
72	0xbc805806	-0.015666973
73	0x3d05c722	0.03266061
74	0x3c37297b	0.011179323
75	0x3c8a65f6	0.016894322
76	0x3d27ebe5	0.04099645
77	0xbc66997d	-0.01407468
78	0x3d86f8d7	0.06590431
79	0x3ca0021f	0.019532261
80	0x3d10e4e8	0.035374552
81	0xbc4cb78e	-0.012494935
82	0x3cb30ac3	0.021855718
83	0x3c3c3d9e	0.0114893
84	0xbcda06cb	-0.026614567
85	0x3db1e06f	0.086853854
86	0x3cae555f	0.021280942
87	0xbcb9ee9e	-0.02269679
88	0xbd5029f1	-0.05082125
89	0x3d1a6b14	0.037699774
90	0xbd351ef9	-0.04421899
91	0x3be2f0fe	0.006925701
92	0xbd7e5bee	-0.06209939
93	0xbd6ea25c	-0.058260307
94	0xbc14f08c	-0.009090554
95	0xbd3383f6	-0.04382702
96	0x3d025d8e	0.031827502
97	0x3d8fecc4	0.07027581
98	0xbbf42cb0	-0.007451616
99	0x3cc3b8c3	0.023891812
100	0x3c668132	0.0140688885
101	0x3c4f6266	0.012657737
102	0x3d4bd77f	0.04976606
103	0x3d953d7d	0.072871186
104	0x3c86a7d7	0.016437454
105	0x3cbe3827	0.023220135
106	0xbaca7f6b	-0.001544935
107	0x3cf2215c	0.029556923
108	0x3cbde423	0.023180073
109	0x3b85209e	0.004062726
110	0x3a43c030	0.0007467298
111	0x3d1fd7c5	0.039024133
112	0x3d6116e5	0.054953475
113	0x3bdc186c	0.0067167785
114	0xbcc5398b	-0.02407529
115	0xbd2a3163	-0.041551005
116	0x3c640e20	0.013919383
117	0x3d0d2da6	0.034467362
118	0xbd5c492a	-0.053780712
119	0xbd4aa969	-0.04947797
120	0xbdb26102	-0.08709909
121	0xbc998016	-0.018737834
122	0xbd063bb4	-0.03277178
123	0xbd996cf0	-0.07491481
124	0xbca54682	-0.020175222
125	0x3d6e9c4a	0.058254518
126	0x3c293bb7	0.010329179
127	0x3d8aba7a	0.06773849
128	0xbc660eb9	-0.014041596
129	0x3cc0dd79	0.023543106
130	0x3d90983b	0.07060286
131	0x3b3ca27d	0.0028783374
132	0x3daa6e69	0.0832184
133	0x3d5d696e	0.054055624
134	0x3dd21bbb	0.102591954
135	0x3dd0fc01	0.10204316
136	0x3ce38690	0.027774125
137	0x3c9084c3	0.01764143
138	0x3d80d7b2	0.062911406
139	0x3d9f44a9	0.07776768
140	0x3d3d38df	0.046196815
141	0x3dbb2ade	0.09139036
142	0x3d7df930	0.06200522
143	0x3d51dc36	0.0512354
144	0x3dc593e5	0.09647349
145	0xbe02d6be	-0.1277723
146	0x3bb4f6cb	0.005522584
147	0x3d2a5d0f	0.041592654
148	0x3c56135d	0.01306614
149	0xbd926a66	-0.071492
150	0xbd4f047c	-0.050541386
151	0xbd90f540	-0.07078028
152	0xbd45c885	-0.048286933
153	0xbd226d62	-0.039655097
154	0x3c098e8f	0.008395805
155	0x3d26c84a	0.040718354
156	0x3ba935b3	0.005163872
157	0x3d1e9fe8	0.038726717
158	0xbd14116e	-0.036149435
159	0xbd025f0f	-0.031828936
160	0xbc701861	-0.01465425
161	0xbc787f71	-0.015167103
162	0xbd212d2d	-0.039349724
163	0xbcefb606	-0.0292616
164	0xbd97df14	-0.07415596
165	0x3cad41ad	0.02114948
166	0x3aac82dd	0.0013161559
167	0x3c8923fd	0.016740793
168	0x3bd9b42d	0.006643793
169	0x3d83d2ee	0.06436716
170	0x3d5f9118	0.05458173
171	0x3c881bdc	0.016614847
172	0xbc9ba4b8	-0.018999442
173	0x3ca28c31	0.01984224
174	0x3d5e9445	0.05434062
175	0xbc1bc8a3	-0.009508285
176	0x3d299357	0.04140028
177	0xbdeeff98	-0.116698444
178	0x3d2d902c	0.04237382
179	0x3cd8bdb4	0.026457645
180	0xbd061e98	-0.03274402
181	0xbd8c2f9d	-0.06845019
182	0xbd24ed46	-0.040265344
183	0x3d6ba437	0.057529654
184	0xbd31fe99	-0.043455694
185	0xbd21618c	-0.03939967
186	0xbd435ae9	-0.04769412
187	0xbcb030dd	-0.021507675
188	0x34653ea9	2.1350083e-07
189	0xbd351a28	-0.044214398
190	0xbd80ac76	-0.06282894
191	0x3cf34d5e	0.029699977
192	0xbc81b8c9	-0.015835183
193	0xbcd34f65	-0.025794694
194	0xbccbb84b	-0.024868151
195	0xbc5b60e5	-0.013389801
196	0x3d2f5594	0.042806223
197	0xbcf2c9cd	-0.029637242
198	0x3d4e772b	0.050406616
199	0x3ca91474	0.020639636
200	0xbb6c5967	-0.003606403
201	0x3d0cc1ab	0.034364384
202	0x3cbaf7be	0.02282321
203	0x3d9b5c38	0.07585949
204	0x3d63c143	0.05560423
205	0xbb8fb89d	-0.0043860213
206	0xbc9b83f9	-0.018983828
207	0x3d022336	0.03177186
208	0xbd52cd1e	-0.051465146
209	0xbd70d365	-0.05879535
210	0xbd2af530	-0.041737735
211	0x3d44e5b4	0.048070624
212	0xbd07c487	-0.033146407
213	0xbd534108	-0.05157569
214	0xbd869768	-0.06571847
215	0xbbb4bf6c	-0.0055159833
216	0x3ca0195d	0.019543344
217	0x3d27130a	0.04078964
218	0xbd7dacda	-0.061932422
219	0xbba43809	-0.0050115627
220	0x3cb4f016	0.022087138
221	0x3de4c506	0.11170392
222	0xbd23720d	-0.03990369
223	0xbc8b6580	-0.017016172
224	0xbccc8a88	-0.0249684
225	0x3b9ae07e	0.0047264686
226	0x3e1100c2	0.14160445
227	0x3db982a2	0.09058119
228	0x3d3e86e1	0.04651535
229	0xbd6ffeb2	-0.058592506
230	0x3b6e7e9a	0.0036391378
231	0x3e166d1c	0.1469006
232	0x3d1cf5a3	0.038320195
233	0x3cc63e99	0.02419977
234	0x3c315c49	0.010825225
235	0x3d04594d	0.032311726
236	0x3cac3f9c	0.021026425
237	0x3dd342fb	0.1031551
238	0x3bbcc03f	0.005760222
239	0x3d8875bd	0.06663082
240	0x3cd39d83	0.025831943
241	0xbcd40aa7	-0.025883986
242	0x3ba63403	0.0050721182
243	0x3cf66714	0.030078448
244	0x3d38f9a1	0.04515994
245	0xbd4f70ab	-0.050644558
246	0xbd10ac76	-0.03532072
247	0xba803d99	-0.0009783983
248	0xbc7b771e	-0.015348224
249	0x3d4441bd	0.047914255
250	0xbd7b2c64	-0.06132163
251	0xbd066f84	-0.032821193
252	0xbb6c58dc	-0.0036063707
253	0xbd695ee7	-0.05697527
254	0xbd234f3b	-0.039870482
255	0xbd3a918c	-0.04554896

fc1.bias f4 [120]
0	0x3d4709a8	0.048593193
1	0xbce3a674	-0.027789332
2	0x3d53cebe	0.051710837
3	0xbb72daad	-0.003705661
4	0xbb49012c	-0.0030670865
5	0x3d09af86	0.033614658
6	0xbbfd9c71	-0.0077395965
7	0x3d11d7d0	0.035606205
8	0x397f9288	0.00024373282
9	0x3dfd4220	0.12366128
10	0x3c513ae0	0.012770385
11	0x3d1150f2	0.035477586
12	0x3d5f57cb	0.054527085
13	0x3d0f4ca2	0.034985192
14	0x3d54c4f3	0.051945638
15	0xbd339d07	-0.043850925
16	0x3cc1d643	0.023661738
17	0xbd0f01bd	-0.034913767
18	0x3bb3283d	0.0054674433
19	0xbde99d95	-0.114070095
20	0x3d8bf733	0.06834259
21	0x3c51ca13	0.012804526
22	0x3b3d6a77	0.002890257
23	0x3d2c8de8	0.04212752
24	0xbbd9b9e4	-0.0066444743
25	0x3b1465aa	0.0022643604
26	0x3d719207	0.058977153
27	0x3db97d88	0.09057146
28	0x3de3009d	0.11084101
29	0x3c412f59	0.011791074
30	0x3c477ab0	0.012175247
31	0xbc9e9153	-0.019356405
32	0x3cbc9c01	0.023023607
33	0xbc5b7a07	-0.013395793
34	0xbd2a605d	-0.041595805
35	0xbd853a2c	-0.06505236
36	0x3d9bcd02	0.076074615
37	0x3ca00eaf	0.019538252
38	0xbcbeba4e	-0.023282196
39	0xbda08de0	-0.078395605
40	0xbd983dea	-0.07433684
41	0x3df350e3	0.11880662
42	0x3dcaa09c	0.09893915
43	0xbdbbc676	-0.09168713
44	0xbbe1b06d	-0.0068874867
45	0x3c727d66	0.014800405
46	0xbda312c8	-0.079625666
47	0x3df16e31	0.117885955
48	0x3c26dee4	0.010184977
49	0x3cb6fbed	0.022336924
50	0x3c753ec4	0.014968578
51	0xbadce13c	-0.0016851793
52	0x3d02ccce	0.0319336
53	0x3c0327fc	0.0080051385
54	0x3d507747	0.050895
55	0x3c2f904e	0.010715557
56	0xbb0cf9b2	-0.0021511135
57	0x3d16fb59	0.036860798
58	0x3d201a6e	0.039087705
59	0xbcf43f3d	-0.02981531
60	0x3e2dfbc7	0.16990577
61	0xbcd5ebe0	-0.02611345
62	0xbc64cb84	-0.0139645375
63	0x3dcb0932	0.09913863
64	0x3c23ef60	0.010005802
65	0x3c8e426d	0.017365659
66	0xbcde804f	-0.027160792
67	0x3c3fd700	0.011708975
68	0xbda0b33d	-0.07846687
69	0x3e4a5b84	0.19761473
70	0x3cb02a46	0.021504533
71	0xbc7ef32e	-0.015560908
72	0x3d9270d2	0.07150425
73	0x3d37fc4f	0.044918355
74	0x3d16fb37	0.03686067
75	0xbcc70369	-0.024293618
76	0xbb66b803	-0.0035204894
77	0xbdc999b4	-0.0984377
78	0xbd464676	-0.04840704
79	0x3d2362b0	0.039889038
80	0x3c0919ee	0.0083679985
81	0xbcde702d	-0.027153099
82	0x3d0520ca	0.032501973
83	0x3c97c89f	0.01852828
84	0x3e2adadc	0.1668505
85	0xbd7a7337	-0.061145034
86	0xbca30972	-0.019901965
87	0xbd8791a9	-0.06619579
88	0x3e02d217	0.12775455
89	0xbdb0dce8	-0.086358845
90	0xbd325876	-0.043541394
91	0x3b45c301	0.0030176046
92	0x3da18f00	0.07888603
93	0x3e0732b9	0.13202943
94	0xbcfdcc61	-0.030981245
95	0xbc311026	-0.010807073
96	0xbc98b5d1	-0.018641384
97	0x3c89b6d2	0.016810808
98	0x3af61a6c	0.0018776185
99	0xbccd178f	-0.025035648
100	0xbcf22f8e	-0.029563691
101	0x3d4cd24a	0.050005235
102	0xbcb81137	-0.022469146
103	0x3dfe320e	0.12411891
104	0xbd83da4b	-0.064381205
105	0x3d8e0d56	0.069361374
106	0x3d10a033	0.035309028
107	0x3d403e53	0.046934437
108	0xbe1d8517	-0.15382801
109	0x3df00472	0.11719598
110	0xbc1affd8	-0.009460412
111	0x3d90929b	0.07059213
112	0x3df4694d	0.11934147
113	0xbe1c068c	-0.15236872
114	0x3d436b72	0.04770989
115	0xbdbd173b	-0.092329465
116	0x3db0c4e4	0.08631304
117	0x3e1dacc1	0.15397932
118	0x3d481a75	0.048853356
119	0x3bd346e6	0.0064476607

fc2.weight f4 [84, 120]
0	0xbd9241b6	-0.071414396
1	0x3d6687f4	0.056282
2	0x3d924957	0.07142895
3	0xbcf09a9e	-0.029370602
4	0xbdcf6eb1	-0.101285346
5	0xbd43a918	-0.047768682
6	0x3d0fdc48	0.035122186
7	0x3d5e50e3	0.05427636
8	0x3c6e9774	0.014562476
9	0xbd5839f2	-0.052789636
10	0x3c4c3805	0.012464528
11	0xbd28cc8c	-0.041210696
12	0x3cb153fc	0.021646492
13	0xbcf5f04c	-0.030021809
14	0xbd217caf	-0.03942555
15	0x3cad845d	0.02118128
16	0xbc94f2eb	-0.018182239
17	0x3dbeb57a	0.09311958
18	0xbdb41403	-0.087928794
19	0x3db779e1	0.089587934
20	0x3cb4cd71	0.022070618
21	0x3d997827	0.0749362
22	0x3d13a5d4	0.036046818
23	0x3c3792cd	0.011204434
24	0x3c8a3c29	0.01687439
25	0x3d733d74	0.05938478
26	0xbd54ffa4	-0.05200161
27	0xbd7529f2	-0.059854455
28	0x3bf09923	0.007342474
29	0xbd86276a	-0.065504864
30	0xbc0c35b5	-0.008557727
31	0xbd7d3cba	-0.06182549
32	0x3cf140f6	0.029449921
33	0xbd0e5dc7	-0.0347574
34	0x3d7889f1	0.060678426
35	0xbd6695b0	-0.056295097
36	0xbd3d768d	-0.046255637
37	0x3dd2e3de	0.102973685
38	0x3d985c5f	0.074394934
39	0x3c813668	0.015773013
40	0xbd0c55be	-0.034261458
41	0x3cd887f3	0.026432013
42	0x3ccdd857	0.025127573
43	0xbcf7c161	-0.030243577
44	0xbdae7265	-0.08517913
45	0xbd99b54c	-0.07505283
46	0x3d11c951	0.03559238
47	0x3d85ed77	0.065394334
48	0x3d2c7cdb	0.04211126
49	0xbd6e21b7	-0.05813762
50	0x3d88f788	0.06687838
51	0xbc47107d	-0.012149927
52	0xbc557df8	-0.013030522
53	0xbd7c9f67	-0.061675455
54	0x3ca7dff7	0.020492537
55	0x3cdd4270	0.027009219
56	0x3c9f380c	0.019435905
57	0xbcde5959	-0.027142214
58	0xbd7313d2	-0.059345074
59	0xbc3f54d8	-0.011677943
60	0xbd9ee8bd	-0.07759235
61	0xbd0d4259	-0.034487102
62	0x3ceb988c	0.028759263
63	0xbbfcf7fe	-0.0077199927
64	0x3d43a328	0.04776302
65	0xbd43490e	-0.047677092
66	0xbcaa96b2	-0.02082381
67	0x3ccee006	0.025253307
68	0x3ab7c610	0.0014020819
69	0xbda5ebf1	-0.08101643
70	0x3db05dd3	0.086116455
71	0x3d9abb8b	0.07555302
72	0xbd3925f6	-0.045202218
73	0xbc2e1d69	-0.010627129
74	0x3d4129c9	0.04715899
75	0x3d4701a3	0.048585545
76	0xbd87e5f6	-0.066356584
77	0xbd081793	-0.033225607
78	0xbbeab8be	-0.0071631363
79	0x3da03b54	0.07823816
80	0x3d56e916	0.05246838
81	0xbcecb9d7	-0.02889721
82	0x3c79fc0a	0.015257845
83	0xbd817b67	-0.06322365
84	0xbc9aa1bf	-0.018875955
85	0xbd80b38c	-0.06284246
86	0x3db7ecec	0.08980736
87	0xbd0fc9d0	-0.035104573
88	0xbd17abb8	-0.037028998
89	0x3db78c68	0.08962327
90	0x3c6182e8	0.013764121
91	0x3d185ed5	0.037199814
92	0xbcb3fd8a	-0.021971483
93	0x3b9c450e	0.004768974
94	0xbd5e12f5	-0.054217298
95	0xbca6575f	-0.020305334
96	0x3db61218	0.0889017
97	0xbd1da769	-0.038489733
98	0xbda576a7	-0.08079272
99	0x3d9391e4	0.07205561
100	0xbd79ffb0	-0.06103486
101	0x3ca3bb09	0.019986646
102	0xbdb69842	-0.089157596
103	0xbc48169c	-0.012212422
104	0x3d386355	0.045016605
105	0x3d6fee54	0.058576897
106	0xbd69fcf4	-0.057126
107	0xbcb9553b	-0.022623649
108	0x3db60953	0.08888497
109	0xbdb69459	-0.08915014
110	0xbdb36b1b	-0.08760663
111	0xbcaa6b78	-0.020803198
112	0xbd6ef877	-0.058342423
113	0x3d5d7715	0.054068644
114	0x3da72bba	0.08162637
115	0x3d8d89e6	0.06911068
116	0x3d075be4	0.033046618
117	0x3cbc22c7	0.022965802
118	0xbc63c1ba	-0.0139011685
119	0xbd82ff50	-0.06396353
120	0xbcc23868	-0.023708537
121	0x3a89f003	0.00105238
122	0xbcb7305d	-0.022361929
123	0xbcc96b4d	-0.024587298
124	0xbc2691c0	-0.010166585
125	0x3dc2cf13	0.095121525
126	0x3c875d27	0.01652391
127	0x3d486d37	0.04893228
128	0x3cef87ba	0.029239524
129	0x3d67da9d	0.05660497
130	0xbce2ed16	-0.027700942
131	0xbda9f523	-0.08298709
132	0x3d480b3b	0.048838835
133	0xbd9a7c7c	-0.07543275
134	0x3d806746	0.06269698
135	0x3d4da9f5	0.05021091
136	0x3ba8e967	0.005154777
137	0xbd9cb7f5	-0.076522745
138	0xbd840283	-0.064457916
139	0xbd70f8a1	-0.05883086
140	0x3cb78ccb	0.022406003
141	0x3c6414ce	0.013920976
142	0x3d917729	0.07102806
143	0x3d87039b	0.065924846
144	0x3d809228	0.06277877
145	0x3d6ca23d	0.05777191
146	0x3e19da41	0.15024664
147	0x3cbe3096	0.023216527
148	0x3dd92033	0.10601845
149	0xbcc51d8f	-0.024061946
150	0xbdaed5b1	-0.08536852
151	0x3c3f0940	0.01165992
152	0xbe3a1558	-0.18172204
153	0x3d504514	0.050847128
154	0xbe07429a	-0.13209
155	0xbdb5444a	-0.08850916
156	0xbd65a85c	-0.056068763
157	0xbe382861	-0.17984153
158	0xbd1743a9	-0.03692976
159	0x3dd1879d	0.10230944
160	0xbe1c2c70	-0.15251327
161	0x3e46baf9	0.19407262
162	0x3dd50550	0.10401404
163	0xbe000dec	-0.12505311
164	0xbcbc537c	-0.022989027
165	0x3bd20cc3	0.0064102127
166	0xbb4803cc	-0.0030519841
167	0xbd321d27	-0.043484833
168	0xbdca39b1	-0.09874285
169	0x3c51da63	0.012808415
170	0xbdcaf796	-0.099105045
171	0xbd8d4edb	-0.06899806
172	0x3d7bf86d	0.061516214
173	0xbb5763c9	-0.0032865873
174	0x3e1c69f1	0.15274788
175	0x3d32b033	0.043625068
176	0xbd8a6759	-0.06757993
177	0x3d77df19	0.060515497
178	0xbe2558a0	-0.16147089
179	0xbdbb0905	-0.0913258
180	0xbd868cc2	-0.06569816
181	0x3e0ec573	0.13942508
182	0xb939bec0	-0.00017714035
183	0xbdfed740	-0.124433994
184	0x3d795877	0.060875382
185	0xbe27e59a	-0.1639618
186	0x3e031613	0.1280139
187	0xbe1c0f74	-0.1524027
188	0xbdc428ea	-0.09578116
189	0x3d78aa88	0.060709506
190	0xbd3d2f56	-0.04618772
191	0xbcc07bfe	-0.023496624
192	0xbe1b2da1	-0.15154125
193	0x3dbe8d24	0.09304264
194	0x3e06651c	0.13124508
195	0x3de25820	0.11051965
196	0xbded44f8	-0.1158542
197	0x3d1a3f1a	0.037657835
198	0x3d594239	0.05304167
199	0xbc41bb38	-0.011824422
200	0x3db9c4d5	0.09070746
201	0x3dcf9880	0.10136509
202	0x3cce2eb9	0.025168763
203	0x3d1f80d5	0.038941223
204	0xbd2e9238	-0.042619914
205	0xbe36e19f	-0.17859505
206	0x3cb7c97c	0.022434942
207	0x3de5c71f	0.1121962
208	0x3dc749e9	0.09730894
209	0x3d2c54a7	0.04207292
210	0x3d689125	0.056779046
211	0xbdba469c	-0.09095499
212	0xb94c3098	-0.00019473059
213	0xbdbb581d	-0.09147666
214	0xbc441845	-0.011968677
215	0xbe23368f	-0.15938781
216	0xbd7922b6	-0.06082412
217	0xbd38fe07	-0.045164134
218	0x3c46c064	0.01213083
219	0xbca9f661	-0.020747365
220	0x3d861462	0.065468565
221	0x3e1d8d76	0.15385994
222	0x3da655f2	0.081218615
223	0xbd3aa188	-0.045564204
224	0xbe48fd7d	-0.19627948
225	0xbd8b0820	-0.06788659
226	0x3e132c82	0.14372447
227	0xbd6ef547	-0.058339383
228	0x3d6457e1	0.05574787
229	0x3e6858dc	0.22690147
230	0xbd99fea9	-0.07519276
231	0xbd7d2cd8	-0.061810344
232	0xbd2f919e	-0.04286348
233	0xbd728c36	-0.059215747
234	0x3e384c9d	0.17997976
235	0xbe032496	-0.12806925
236	0x3e00d311	0.12580515
237	0x3de708ac	0.11280951
238	0x3d89b366	0.06723671
239	0xbda1a4e4	-0.078927785
240	0x3db0bb84	0.08629516
241	0x3c23fc8f	0.010008945
242	0x3b01e8ba	0.0019822554
243	0x3d8978f6	0.067125246
244	0x3d9c589d	0.07634089
245	0xbdcf1613	-0.10111632
246	0xbd399f3f	-0.045317885
247	0x3dfbf20d	0.12302027
248	0xbd528a2d	-0.051401306
249	0x3df77890	0.12083542
250	0x3c1e268b	0.009652744
251	0x3c9b4283	0.018952614
252	0x3dec92b4	0.11551419
253	0x3de11ca8	0.10991794
254	0xbd96492d	-0.07338176
255	0xbe125493	-0.14290075

fc2.bias f4 [84]
0	0x3badd747	0.005305204
1	0x3d8d0adc	0.06886837
2	0xbdab5258	-0.08365315
3	0x3a7f38b7	0.0009735929
4	0xbda1f3a3	-0.07907798
5	0xbd0fa9ea	-0.035074152
6	0xbdf0499f	-0.11732792
7	0x3e397d03	0.18114094
8	0xbd0ae3ee	-0.033908777
9	0xbd0d1f7c	-0.034453854
10	0x3e021605	0.12703712
11	0x3e52ba2c	0.20578831
12	0xbd2a1927	-0.041527893
13	0x3d451a68	0.048120886
14	0xbd8397c1	-0.06425429
15	0xbde653af	-0.1124643
16	0xbe192b56	-0.14957938
17	0xbd521a0d	-0.051294375
18	0x3cc37b7b	0.023862591
19	0x3da42b7d	0.08016107
20	0x3d6bb9fd	0.05755042
21	0xbda929e3	-0.082599424
22	0x3e304200	0.17212677
23	0xbd2f4743	-0.04279257
24	0xbd9dc5c0	-0.077037334
25	0xbceec5f1	-0.02914712
26	0xbdc1b6a5	-0.09458665
27	0xbdc0aa1d	-0.094074465
28	0xbd458d35	-0.04823037
29	0xbd6c5550	-0.057698548
30	0x3cedaecd	0.029014016
31	0x3bbc9090	0.005754538
32	0x3e5066fc	0.20351785
33	0xbd34bdb6	-0.044126235
34	0x3e34e7bb	0.17666523
35	0xbe03e0e2	-0.12878755
36	0x3d2923a4	0.041293755
37	0xbcdfc12d	-0.027313793
38	0x3df50848	0.1196447
39	0xbcacab8a	-0.02107789
40	0xbdc38797	-0.09547346
41	0x3de68ff6	0.11257927
42	0x3e647da5	0.22313555
43	0x3cdc123a	0.02686416
44	0x3e3cdf69	0.18444599
45	0x3e843430	0.25821066
46	0x3b3ea30c	0.0029088883
47	0x3e1317fb	0.14364617
48	0xbd22a0e6	-0.039704226
49	0xbd3bb4b3	-0.045826625
50	0x3d65eee1	0.056136016
51	0xbd7f8486	-0.062382244
52	0xbcdc76ab	-0.026912054
53	0xbd2a1828	-0.041526943
54	0x3dddba32	0.108265296
55	0x3de3ed9d	0.111293055
56	0x3db2c503	0.08728983
57	0xbc3fdfaf	-0.011711045
58	0x3cda7803	0.026668554
59	0x3e72cd10	0.23711038
60	0xbd3f7f64	-0.04675235
61	0x3de8e6c7	0.11372142
62	0xbe036c87	-0.12834369
63	0x3d2482a8	0.040163666
64	0x3e2f49ae	0.1711795
65	0x3c7caa47	0.015421457
66	0xbcf9b1c8	-0.03048028
67	0xbd844da8	-0.06460124
68	0x3c32f59c	0.010922816
69	0xbd8a4931	-0.067522414
70	0x3d8560cc	0.06512603
71	0x3bcc3fa6	0.0062331734
72	0x3df28de6	0.11843471
73	0xbb23cc03	-0.0024993427
74	0x3db8a29c	0.0901539
75	0x3c99397d	0.01870417
76	0xbd239433	-0.039936256
77	0xbd0eaa6f	-0.034830507
78	0x3e14b1d6	0.14520964
79	0x3dcbcc42	0.099510685
80	0x3c804ae7	0.015660716
81	0x38fb9af3	0.00011997474
82	0x3d99a696	0.07502477
83	0xbd78a68a	-0.0607057

fc3.weight f4 [10, 84]
0	0x3d0ad806	0.033897422
1	0xbcb08eaf	-0.021552412
2	0xbe09eff9	-0.13470449
3	0x3e1af2ae	0.15131637
4	0x3e1302f9	0.14356603
5	0x3df82c03	0.121177696
6	0x3ecd82a9	0.40138748
7	0xbe079b27	-0.1324278
8	0x3d8424fc	0.06452367
9	0xbd118e81	-0.035536293
10	0xbf00e65a	-0.5035149
11	0xbc4b1aa9	-0.012396493
12	0x3dc2c2f3	0.0950984
13	0xbca3b066	-0.019981574
14	0x3d0dda4c	0.034632012
15	0xbda5ed3e	-0.08101891
16	0x3e496574	0.19667608
17	0xbe2e869c	-0.17043537
18	0x3eaa73aa	0.3329137
19	0xbdd7b455	-0.105324425
20	0x3de9ecb9	0.114221044
21	0xbce1505a	-0.027504135
22	0xbdfd3158	-0.12362927
23	0x3da9931c	0.08280012
24	0xbe3f8235	-0.18702014
25	0x3ea628c8	0.3245299
26	0xbe0fd540	-0.14046192
27	0x3e7c055f	0.24611424
28	0xbec6b63e	-0.38810915
29	0xbe4370d8	-0.19086015
30	0xbd95fdce	-0.073238
31	0xbe05ea44	-0.13077646
32	0x3cfdf075	0.030998448
33	0x3d954ccd	0.07290039
34	0xbe7a78b8	-0.24460113
35	0xbe29361a	-0.16524544
36	0xbe45992c	-0.19296712
37	0x3ec13dc9	0.3774245
38	0xbe310154	-0.17285663
39	0x3e3640e6	0.17798194
40	0x3e95eb3e	0.29281038
41	0xbdb20c58	-0.08693761
42	0x3eba781e	0.36419767
43	0x3edf7de4	0.43650734
44	0xbcbd0b55	-0.023076693
45	0x3e16b97b	0.14719193
46	0xbde58b76	-0.11208241
47	0x3bef2c3c	0.0072989743
48	0xbde54122	-0.11194064
49	0x3e389778	0.1802653
50	0xbeb20fd7	-0.3477771
51	0xbecbcfac	-0.3980688
52	0xbd649dce	-0.055814557
53	0x3dc0e78c	0.09419164
54	0x3ea7162b	0.326341
55	0x3e41879d	0.18899389
56	0x3e4e34cb	0.20137326
57	0xbeb50a7d	-0.35359564
58	0x3c552676	0.013009658
59	0x3e0f6e8e	0.14007017
60	0xbe927218	-0.28602672
61	0xbd3d6bd2	-0.046245404
62	0x3e010307	0.12598811
63	0xbd1c1461	-0.038105372
64	0xbe74a0d5	-0.23889478
65	0xbdeda73a	-0.116041616
66	0xbd502b06	-0.05082228
67	0x3d74276b	0.059607904
68	0xbdce9f19	-0.10088939
69	0x3d2eb6b2	0.0426547
70	0xbca9b2d7	-0.02071516
71	0x3e4dd9f6	0.20102677
72	0x3e591de1	0.21202804
73	0xbe71c6e1	-0.23611023
74	0x3e1119fc	0.14170069
75	0x3c5dc06f	0.013534649
76	0xbe01a2cb	-0.12659757
77	0xbe2f6652	-0.17128876
78	0x3e5d8805	0.21633919
79	0xbea3fcd1	-0.3202882
80	0x3e889e1a	0.26683122
81	0xbe659a97	-0.22422253
82	0xbd6cdcca	-0.05782775
83	0x3e2efe51	0.17089202
84	0xbe0e28e8	-0.13882792
85	0xbdade057	-0.08490055
86	0x3eac1edb	0.3361729
87	0x3e56316a	0.20917287
88	0xbe4d59c5	-0.20053776
89	0x3d5fa040	0.054596186
90	0x3e41b79f	0.18917702
91	0x3d9d157b	0.07670113
92	0xbd3b82d3	-0.04577906
93	0xbdb6211f	-0.08893036
94	0xbee58ed6	-0.44835538
95	0xbdb4d1c7	-0.08829074
96	0xbdb41bb3	-0.08794346
97	0xbdec0551	-0.115244515
98	0x3e172ef8	0.14764011
99	0x3d1ea334	0.03872986
100	0x3ed45fc9	0.41479328
101	0xbdc8a23b	-0.09796568
102	0x3ec9d222	0.3941813
103	0xbda6e7d2	-0.08149685
104	0xbc6e7145	-0.014553373
105	0x3da13400	0.07871246
106	0xbe1496e0	-0.14510679
107	0x3e1fed0f	0.15617774
108	0xbe13499d	-0.1438355
109	0x3c831db4	0.016005374
110	0x3ee63e16	0.44969243
111	0xbdbb3a6a	-0.09142001
112	0x3e8c4382	0.27395254
113	0x3eaabbcc	0.33346403
114	0xbe339e66	-0.17540893
115	0xbe147cbb	-0.14500706
116	0xbef34f5f	-0.47521493
117	0x3dd342dc	0.10315487
118	0x3d4fb9a2	0.050714143
119	0x3e886ee8	0.26647115
120	0x3e97f01f	0.29675385
121	0x3e7698b8	0.24081695
122	0xbe147378	-0.14497173
123	0xbd090c33	-0.0334589
124	0xbd8cb4e0	-0.06870437
125	0x3de533f0	0.11191547
126	0xbe25f578	-0.1620692
127	0x3d479698	0.0487276
128	0xbd19d2ce	-0.037554555
129	0xbeb43de9	-0.35203484
130	0xbe8d3120	-0.27576542
131	0x3d95159a	0.07279511
132	0x3e06f2fd	0.1317863
133	0x3d6ff161	0.058579806
134	0x3e4d1450	0.2002728
135	0x3f006ee3	0.501692
136	0xbcffa9ae	-0.03120884
137	0xbae0466c	-0.0017110831
138	0x3e0e8f91	0.13921954
139	0xbda237ed	-0.07920823
140	0x3e7632c7	0.24042808
141	0xbd1b837f	-0.0379672
142	0xbe92413f	-0.28565404
143	0xbeda0b87	-0.4258692
144	0x3e00517f	0.12531088
145	0xbe44eca4	-0.19230896
146	0xbd7e8be1	-0.062145118
147	0xbd212e92	-0.039351054
148	0xbdd5b6ca	-0.10435255
149	0x3e8cf82a	0.27533084
150	0xbce952a1	-0.028481783
151	0xbd2c8396	-0.042117678
152	0xbdda08d7	-0.10646217
153	0xbe53ce0c	-0.2068407
154	0x3e5e39a0	0.2170167
155	0xbed327fd	-0.41241446
156	0xbdbdf0f2	-0.09274472
157	0x3d8b6a6a	0.06807406
158	0x3e37e214	0.17957336
159	0xbd0cfebd	-0.034422625
160	0x3e470850	0.19436765
161	0xbd8671fb	-0.06564709
162	0xbeabc89d	-0.33551493
163	0xbd5a08a0	-0.05323088
164	0xbe6faf39	-0.23406686
165	0xbe896fde	-0.2684316
166	0x3e42cc17	0.19023167
167	0xbda87301	-0.0822506
168	0x3d471ea6	0.048613213
169	0x3f141c58	0.5785575
170	0xbd04f5e4	-0.032461062
171	0x3e485938	0.19565284
172	0x3ecc2f40	0.398798
173	0xbdeb1627	-0.114788346
174	0x3d637b60	0.05553758
175	0x3c8c8e12	0.017157588
176	0x3e434a2f	0.19071268
177	0xbe49d2ce	-0.19709322
178	0x3df9c117	0.12195032
179	0x3ea01938	0.3126924
180	0x3db20296	0.086918995
181	0x3e83ed1c	0.25766838
182	0x3e512215	0.20423158
183	0xbe251492	-0.16121128
184	0x3e4a6b94	0.197676
185	0x3e2f42d7	0.17115341
186	0xbe2fa34c	-0.17152137
187	0x3e381cda	0.17979756
188	0x3d885eef	0.06658732
189	0xbc18f7ca	-0.009336421
190	0x3c9868d4	0.018604673
191	0x3e2fb38b	0.17158334
192	0x3e64c56f	0.2234094
193	0xbe4a6b2e	-0.19767448
194	0xbd3f90a4	-0.0467688
195	0x3e8da545	0.27665153
196	0x3dab71a8	0.083712876
197	0x3cdff341	0.027337672
198	0xbe64c8e0	-0.22342253
199	0x3e2a1fd8	0.1661371
200	0x3eb0790d	0.34467354
201	0xbca62827	-0.020282818
202	0x3e9677e1	0.29388335
203	0xbdb4c8d3	-0.08827367
204	0x3e3179e1	0.1733165
205	0x3e97a2c3	0.29616365
206	0x3e66113e	0.22467515
207	0x3e662af3	0.22477321
208	0x3ecf2ab1	0.40462258
209	0xbc7927a4	-0.015207205
210	0xbe021454	-0.12703067
211	0x3eb83ddc	0.35984695
212	0x3eadaa8d	0.33919182
213	0x3eeb5845	0.45965782
214	0x3db354d7	0.08756416
215	0x3e4bbb95	0.19895776
216	0x3e19c375	0.15015967
217	0x3e410d93	0.18852834
218	0xbd185932	-0.03719444
219	0xba00d944	-0.00049151876
220	0x3e1565cb	0.14589612
221	0x3d665e82	0.056242473
222	0xbe47f999	-0.19528808
223	0xbe9f98e3	-0.3117133
224	0xbe21d77e	-0.1580486
225	0xbdcc5310	-0.099767804
226	0x3e9a2c3a	0.30111867
227	0x3cd3ddd3	0.02586261
228	0x3de37793	0.11106791
229	0xbdc622cd	-0.096746065
230	0xbe81b273	-0.25331458
231	0x3c540a3d	0.012941894
232	0xbe7e453f	-0.24831103
233	0xbe568afb	-0.20951454
234	0x3dd2f158	0.10299939
235	0x3ef9cfb0	0.48791265
236	0xbd7d33f6	-0.061817132
237	0xbde898bd	-0.113572575
238	0xbe7c34f5	-0.24629577
239	0xbe39c37d	-0.18140979
240	0xbeafd9a3	-0.3434573
241	0xbe996fa4	-0.29967988
242	0xbea8f629	-0.33000305
243	0xbe1d6c24	-0.15373284
244	0x3d958efe	0.07302664
245	0xbd8ab079	-0.06771941
246	0xbe0b1742	-0.13583091
247	0xbe851d58	-0.2599895
248	0xbe5b4e5a	-0.21416607
249	0x3c4d0768	0.012513973
250	0xbe2fb955	-0.17160542
251	0xbcdabcbc	-0.026701324
252	0x3deed80b	0.11662301
253	0xbe03687d	-0.12832828
254	0xbea783f9	-0.32717875
255	0xbe6d8440	-0.2319498

fc3.bias f4 [10]
0	0xbe077592	-0.13228443
1	0xbea1c11b	-0.3159264
2	0xbd1df3af	-0.038562473
3	0x3df55706	0.11979489
4	0x3ec47ef9	0.38378122
5	0xbe5e0f9e	-0.21685645
6	0xbce6fd90	-0.02819708
7	0xbe5c1530	-0.21492457
8	0x3e986aaa	0.29768878
9	0xbe11a330	-0.14222407
